data/trained_models/vbf/models/model_pytorch_test_2.pt (torch, 56591 bytes, 7 tensors)

fc1.weight f4 [128, 24]
000000 ee 7f c7 41 6b 78 1e 41 2e ec 95 41 2f fe 5c c1
       24.937466 9.904399 18.740322 -13.812057
000010 8d 4c 1f 41 c4 c5 0e 41 14 07 a9 c1 ea 6b b8 c0
       9.956189 8.923283 -21.128456 -5.763173
000020 03 9b 81 41 5f ba d5 c0 3b 9d 98 40 15 42 de 3f
       16.20069 -6.6790004 4.769193 1.7363917
000030 3f 0d 72 41 eb 9f ae 40 bb 9f b7 41 b9 15 87 41
       15.128234 5.457021 22.952993 16.885607
000040 04 84 9e 41 26 65 8c 41 c3 42 d3 c0 4d 35 fd 40
       19.81446 17.549389 -6.6018996 7.9127564
000050 60 d5 be 40 85 c1 2b 3f 22 13 85 c0 42 23 85 3f
       5.9635468 0.6709216 -4.1585855 1.0401385
000060 bd d6 76 40 20 dc 68 3e cf 05 40 41 61 d4 59 c0
       3.8568566 0.22740221 12.001418 -3.4035876
000070 a5 f3 12 c0 cf 61 4c c0 91 ff 5d c0 62 c3 36 40
       -2.296121 -3.1934698 -3.4687235 2.8556752
000080 43 ff c0 40 d3 2b e3 3e a8 15 c9 bf c4 de 39 3f
       6.03116 0.44369373 -1.5709734 0.7260554
000090 79 fa 29 c1 46 95 c3 c0 2c 38 10 c1 e1 55 02 41
       -10.623651 -6.111972 -9.013714 8.145967
0000a0 57 b0 83 40 51 fa 8e 41 20 30 b0 41 ef 8d 61 41
       4.115276 17.872225 22.023499 14.097152
0000b0 5e a4 1e 42 4b 49 e2 41 b0 12 ec 3d 02 65 ca 40
       39.660515 28.285788 0.11527002 6.32483
0000c0 4a 09 d5 bf 57 1b 29 41 10 45 75 41 b8 65 26 c1
       -1.664346 10.569175 15.329361 -10.399834
0000d0 9a 5a 21 c1 01 13 1c c1 56 89 d8 40 da ff 37 c0
       -10.0846195 -9.75464 6.7667646 -2.874991
0000e0 38 b2 fe c0 4e a4 9d 3f f6 7f fe c0 24 d7 02 41
       -7.959255 1.2315767 -7.95312 8.177525
0000f0 83 b0 94 40 37 e6 79 3f d2 f1 90 c0 4d 95 82 41
       4.646547 0.97616905 -4.529519 16.3229
000100 92 3a 5a 41 91 09 51 41 9d a0 5f 40 5c 01 8b c0
       13.639299 13.064836 3.494178 -4.343916
000110 1f 51 fd c1 18 b2 6d c1 22 c5 a5 c1 15 86 94 c1
       -31.66461 -14.85598 -20.721256 -18.56547
000120 13 97 99 c2 fc cb e3 c0 2e 74 27 c1 6f dc 40 41
       -76.79507 -7.1186504 -10.465864 12.053817
000130 ff c3 d9 40 ec 84 7c 41 1f 06 5a 40 8c 26 f6 bf
       6.8051753 15.782452 3.4066236 -1.9230514
000140 60 e2 b4 c1 74 24 13 c1 d7 90 03 c2 cc d2 ea c1
       -22.610535 -9.1964 -32.891445 -29.352928
000150 ed 1f 83 c1 cd 24 98 41 1c f2 c0 c0 81 0d 9a c1
       -16.390589 19.01797 -6.0295544 -19.256594
000160 f0 74 4c bf 55 71 7f 41 c7 14 3f 41 e1 82 8c 40
       -0.7986593 15.965169 11.942573 4.3909764
000170 e3 55 90 41 6b ba 9a c1 91 39 03 c1 b1 ff b1 c1
       18.041937 -19.341024 -8.201554 -22.24985
000180 83 9a 19 c2 25 e8 83 41 b5 ea fd 3f f6 a0 db 41
       -38.40089 16.488352 1.9837252 27.453594
000190 5a f0 1a 41 8a 5f 5c 41 35 d3 7f c1 5b d3 92 c1
       9.68368 13.773325 -15.989064 -18.3532
0001a0 11 a4 f2 41 a8 ad 9a c0 1e ef a7 40 aa 0a 1a c1
       30.33011 -4.8336983 5.247939 -9.627604
0001b0 ad 0f bc 41 0a d7 b2 40 d4 bb 63 c0 b6 a3 a1 41
       23.507654 5.58875 -3.558339 20.204937
0001c0 d6 52 a6 41 35 65 cb 41 be 78 b9 be d2 ed 32 c1
       20.790447 25.424417 -0.3622493 -11.183062
0001d0 94 b5 33 41 9c 80 3e c1 7a 37 ad be 4f 6d 65 41
       11.231831 -11.906399 -0.33831388 14.339187
0001e0 a3 94 00 c2 03 a1 f1 40 bf 9e 50 41 52 67 78 c1
       -32.145153 7.5509048 13.038756 -15.525225
0001f0 e4 89 88 c0 17 25 8a be 95 d2 32 41 3c f1 2d 41
       -4.2668324 -0.26981422 11.176412 10.871395
000200 32 46 d6 40 ed 87 15 41 1c 1a b4 40 3d 6c 05 40
       6.696069 9.345685 5.628187 2.0847313
000210 8c a6 6c c0 5e 87 77 c0 ba 7a 29 c0 5f 57 fa c0
       -3.6976652 -3.8676372 -2.6481156 -7.8231654
000220 d1 9f 88 41 12 36 ff 41 03 53 ee 41 0e 48 15 c0
       17.078035 31.901402 29.790533 -2.3325229
000230 d6 ce 30 3f a3 dc aa 3f 66 50 a4 40 af 1a c3 c0
       0.69065607 1.3348583 5.1348143 -6.0970073
000240 a7 51 3d 42 85 0b 38 41 02 ce ca 41 50 06 0d 41
       47.32974 11.502812 25.35059 8.814041
000250 c9 2e 31 41 c2 9f c8 40 b1 0e 03 c2 4e be 8f bf
       11.073922 6.2695017 -32.764347 -1.1229951
000260 c8 86 59 41 87 98 72 41 48 d2 15 42 66 2a f5 41
       13.595406 15.162238 37.455353 30.645702
000270 03 b9 f0 c0 eb b6 0a 41 cc 7a 13 3f 95 fd 5b c1
       -7.5225844 8.669658 0.5760925 -13.74941
000280 d9 a5 9f 40 46 83 6b 40 5d 9c 1d c1 ba 77 ec 41
       4.988995 3.6798873 -9.850675 29.55846
000290 65 96 cd c0 a8 23 7b 41 51 ee a0 c1 3d e9 69 c1
       -6.4246087 15.696205 -20.116365 -14.619443
0002a0 eb 95 81 c2 b8 ac cc c1 76 16 cf c1 f2 fe 4f 40
       -64.79281 -25.584335 -25.885967 3.2499356
0002b0 b8 a3 5e c1 9f 79 dd c0 57 04 d8 c1 87 91 b6 c0
       -13.91497 -6.9210963 -27.00212 -5.7052646
0002c0 6f 24 a9 40 ef 78 1e c1 26 e8 ac 3e bc 19 9e c0
       5.2856975 -9.904525 0.33770865 -4.9406414
0002d0 e4 b3 b8 c0 5e 93 3e 40 8b 93 b1 c0 d3 d6 72 c1
       -5.7719593 2.9777446 -5.5492606 -15.177447
0002e0 da 68 83 c0 49 e0 11 41 21 66 a7 41 3d f6 69 c1
       -4.1065493 9.117257 20.924868 -14.622617
0002f0 ef 75 3c 41 76 6e 93 c0 0e a6 8e c1 ee f1 87 c1
       11.778792 -4.607234 -17.831081 -16.99313
000300 2a 4b ca 42 8a a6 a6 41 b3 18 ca 41 9b 9c 81 41
       101.146805 20.831318 25.26206 16.201468
000310 3c a2 1d 42 57 64 e9 41 04 55 bd bf 62 97 95 40
       39.408432 29.173994 -1.479157 4.6747293
000320 97 f9 7b c0 7f b8 c1 c1 65 c6 71 41 e7 46 b3 41
       -3.9371088 -24.215086 15.110936 22.40962
000330 46 1c 71 c0 e2 18 b6 be e0 05 8d 41 21 88 fe 41
       -3.7673507 -0.3556586 17.627869 31.81647
000340 8c aa 50 41 15 34 8e bf 8b 42 97 c1 7a 4f af 41
       13.041637 -1.1109644 -18.907492 21.913807
000350 f4 87 1b 40 a6 ac 6c c1 51 98 8f c0 7e 42 1a c1
       2.430173 -14.7921505 -4.4873433 -9.641233
000360 67 79 15 42 7e 03 26 c1 66 59 9e c0 af cd 35 c1
       37.368557 -10.375853 -4.948413 -11.362716
000370 62 b5 7b bf 1f a6 d3 c0 1b 60 11 40 66 43 96 c0
       -0.98323643 -6.6140285 2.2714908 -4.6957273
000380 65 65 8b 40 39 a6 a8 40 45 af c5 40 68 d7 cb 41
       4.3561273 5.270291 6.177645 25.480179
000390 7a 83 b7 c1 e3 31 8b c1 51 7a 03 bf cf b3 2b 41
       -22.939198 -17.399359 -0.51358515 10.731399
0003a0 7e ce 9e c1 35 4a 15 c1 3e f7 6e 41 78 71 0f 42
       -19.850826 -9.330617 14.935362 35.86081
0003b0 62 32 1d 41 73 1e c8 40 d3 24 7f c1 95 2b 89 c1
       9.8248005 6.253717 -15.94649 -17.14628
0003c0 45 a3 a8 c2 47 7d fe c1 28 2f 0e c2 55 ac 52 41
       -84.318886 -31.81117 -35.54605 13.167073
0003d0 c3 03 32 c0 b8 15 b5 40 a2 bf e9 41 e2 8a 26 41
       -2.7814796 5.658901 29.21857 10.408907
0003e0 d2 b4 c2 c1 39 f5 38 41 6b 5e c1 be 8a 5a 2c c2
       -24.338291 11.559869 -0.37767348 -43.088417
0003f0 b4 dd 28 40 5a a1 03 c1 89 65 a2 41 29 c9 ff 41
       2.6385317 -8.226892 20.299578 31.973223

fc1.bias f4 [128]
000000 c4 37 cb 41 3a 81 56 c2 e7 48 38 42 c8 08 9e 42
       25.40223 -53.626198 46.071194 79.01715
000010 fe e1 0e 42 68 3b 68 c2 44 9d 3a c2 32 23 13 40
       35.720695 -58.058014 -46.65358 2.2990232
000020 22 0c d4 c0 f8 15 27 c2 40 6b 80 42 59 b5 3b 41
       -6.626481 -41.771454 64.20947 11.731774
000030 39 d0 c7 c1 12 c1 97 c2 62 b4 51 c1 4a f2 81 42
       -24.976671 -75.87709 -13.106539 64.97322
000040 f3 20 4a c2 ac 29 82 c2 ff e6 03 41 8a bb 08 42
       -50.532177 -65.08139 8.243896 34.183144
000050 92 fd cd c1 11 a2 57 41 e1 f1 38 42 75 4a e4 41
       -25.748814 13.477067 46.23621 28.536356
000060 34 60 06 42 0f c3 1e c1 12 9b 24 42 f4 a7 d6 c0
       33.59395 -9.922622 41.151436 -6.708002
000070 95 bc 34 c2 dc 60 2f 42 fc 11 05 c2 2f 06 dd 40
       -45.184162 43.84459 -33.267563 6.907005
000080 60 e3 f6 3f 4e 77 87 41 b2 37 08 c2 f4 ff 8a 41
       1.9288139 16.933254 -34.05439 17.374977
000090 44 2b 3a 41 2e ea 28 42 cc 08 90 c2 7a 9e 88 41
       11.635563 42.22869 -72.01718 17.077381
0000a0 57 90 b4 c2 85 09 fe 41 36 ad 41 c2 89 9f 9d c1
       -90.28191 31.754648 -48.41915 -19.702898
0000b0 84 b1 93 c2 5a dd 24 42 dd 31 f6 41 0c 9f a4 3f
       -73.84671 41.216164 30.774347 1.2861037
0000c0 a7 ca 00 41 d6 fb f1 41 e1 e0 b7 c1 4b cf b2 42
       8.049476 30.247967 -22.984804 89.40487
0000d0 20 88 05 42 22 75 87 c1 4d ab 89 40 40 02 a0 41
       33.382935 -16.932194 4.3021607 20.001099
0000e0 4e 84 eb c1 6c d1 d5 40 b6 bf 60 c1 5d cf 91 c1
       -29.439602 6.681814 -14.046804 -18.226252
0000f0 93 c7 66 c2 41 4d c6 41 88 8e 6b 42 fe 3b a6 42
       -57.694897 24.787722 58.88919 83.11717
000100 f5 6b 91 41 0c bc 10 c2 50 73 a0 c2 6b 43 21 42
       18.177713 -36.18364 -80.22522 40.315838
000110 78 5f f7 41 fd 30 b9 41 18 c1 95 42 08 6a 68 c1
       30.921616 23.14892 74.87714 -14.525887
000120 61 50 c4 c1 8c c7 80 c1 5e d2 4e 42 0e c9 02 c2
       -24.539248 -16.097435 51.705437 -32.696342
000130 b2 e2 ed be b9 f8 ad 41 f5 c4 1a 42 d7 02 00 42
       -0.46462017 21.746447 38.69234 32.002773
000140 5a d3 78 c1 d9 3f 9d c1 96 1a 9a 41 93 49 33 42
       -15.5515995 -19.656176 19.262981 44.82185
000150 46 66 c0 41 8a 96 a1 c0 1d 57 4e c2 1e b1 74 c2
       24.049938 -5.0496264 -51.58507 -61.172966
000160 32 82 cb c2 9a 78 45 3f 95 6d 86 c2 27 e4 30 42
       -101.75429 0.7713715 -67.21403 44.222805
000170 23 a2 7d 41 59 ee 19 42 0b c2 17 c2 c9 4d 5e 41
       15.852084 38.48276 -37.939495 13.8939905
000180 55 81 2d c1 98 d2 15 42 6f 75 59 c2 25 58 99 41
       -10.844075 37.455658 -54.36468 19.16804
000190 bf bc d4 c1 69 59 da c1 21 8f e3 c1 7e b4 3d 42
       -26.592161 -27.293657 -28.444887 47.42626
0001a0 a7 1d da 40 7f 90 8b c1 e8 be ab 3f b7 7d 45 c0
       6.8161197 -17.445555 1.3417635 -3.085798
0001b0 30 22 0c c1 a9 f6 87 c1 f5 2d 0d 42 29 b5 cf c1
       -8.758347 -16.99544 35.29488 -25.963457
0001c0 75 57 40 42 73 d1 ea 41 2c c8 01 c1 4f 14 8a c2
       48.085407 29.35227 -8.11137 -69.039665
0001d0 36 09 8b c1 e9 75 1d 42 af c6 7d 42 90 27 d1 c0
       -17.379498 39.365147 63.444027 -6.5360794
0001e0 94 8a 5f c2 38 4d 9c 3f 39 4d bc 42 d7 41 7b 41
       -55.88533 1.2211065 94.150826 15.703574
0001f0 2c 3f b0 c1 0f 9e 73 c1 9e dd 82 c1 80 37 88 42
       -22.030846 -15.226089 -16.358212 68.1084

fc2.weight f4 [64, 128]
000000 10 78 77 40 44 fd 4c c1 ab 69 eb 40 92 82 9a 40
       3.866703 -12.811832 7.356649 4.8284388
000010 1c f4 4f 40 3b a3 33 c1 9f ad bb bf 04 01 8a c0
       3.2492743 -11.227351 -1.466236 -4.312624
000020 5b 8f 1b 40 06 19 5a c1 e1 c7 04 41 90 6d bb 40
       2.4306247 -13.631109 8.298799 5.8571243
000030 c8 ca 29 c0 4f ce 46 c1 50 50 ab bb 0d f2 12 41
       -2.6530018 -12.425368 -0.00522808 9.184094
000040 2e 2b b6 c0 24 da 26 c1 19 ef 13 40 bc b8 e9 40
       -5.692771 -10.428257 2.3114684 7.3038006
000050 50 ba 3c bf 3c 1d be 3f f7 b4 eb 40 ca d9 37 41
       -0.7372179 1.4852672 7.3658404 11.490671
000060 d0 5e 9b 40 2d 2f 8d bf b5 48 05 41 fc a3 da 3d
       4.855324 -1.1030022 8.330251 0.10675809
000070 e4 99 5d c0 4c db 1a 40 df 0e 10 c1 73 4f 87 40
       -3.4625177 2.4196348 -9.003631 4.2284484
000080 6b cb 4a 3f af 88 04 41 35 fc 15 c1 7e 0f c0 be
       0.7921664 8.28337 -9.374074 -0.3751182
000090 7c 09 8b 3e b9 e3 ea 40 75 35 76 c1 f9 d3 51 3e
       0.27155674 7.340298 -15.388051 0.20491017
0000a0 75 f0 83 c1 81 57 8f 40 18 40 04 c1 11 43 81 c0
       -16.49241 4.4794316 -8.265648 -4.039437
0000b0 24 d8 50 c1 4f e9 0a 41 a5 21 0a 41 84 23 dc c0
       -13.052769 8.68196 8.633214 -6.8793354
0000c0 69 97 ea 3f 94 43 7f 3f 44 9a 25 3f 3e 74 90 41
       1.8327457 0.9971249 0.64688516 18.056759
0000d0 48 4c bb 40 3c 59 c3 40 33 3d bc bf 9a b6 9d 3f
       5.8530617 6.104643 -1.4706177 1.232135
0000e0 f8 04 9e c0 05 be 4e c0 65 84 54 bf 5b 61 eb bf
       -4.9381065 -3.2303479 -0.8301452 -1.8389086
0000f0 5d 7f 55 c1 1e 53 24 40 df 09 2f 41 96 d9 85 41
       -13.343595 2.567573 10.93991 16.731243
000100 c3 77 93 c0 77 61 42 c0 17 91 3a c1 83 2e 1f 41
       -4.6083694 -3.0371988 -11.660422 9.948855
000110 0e 6d c8 3f 53 82 96 c0 d1 3b 54 41 81 ea 95 3f
       1.5658281 -4.7034087 13.264604 1.171219
000120 9b 8f b8 c0 7e 76 05 c1 51 b8 07 41 d0 e5 e9 c0
       -5.76753 -8.341429 8.482499 -7.3093033
000130 0e 97 83 c0 6a d0 38 40 e9 e8 c8 40 5e 45 f6 40
       -4.1121893 2.8877206 6.2784314 7.6959677
000140 c0 2f 98 bf 54 96 4f bf 78 bb 82 3e a9 30 ed 40
       -1.1889572 -0.8108876 0.25533652 7.41219
000150 1c 96 11 41 da 6a 6d 3f 4b 97 20 c1 bf 28 1d c1
       9.099148 0.9274117 -10.036937 -9.822448
000160 71 91 b4 c1 f4 62 ae c0 e8 6b 45 c1 5a d7 62 41
       -22.571016 -5.4495792 -12.338844 14.177576
000170 bb 42 27 40 38 f0 07 41 cb 32 1a c1 f8 58 3a 40
       2.613448 8.496147 -9.637401 2.9116802
000180 d7 a5 ad c0 cc ec e4 40 6c fd fe c0 58 06 50 40
       -5.426494 7.153906 -7.9684353 3.2503872
000190 73 cd 19 c1 ea bb dc c0 f9 8d 8e c0 e3 5e 5e 40
       -9.6126585 -6.8979387 -4.4548306 3.4745414
0001a0 e4 c5 a0 40 f4 0c 20 c1 ae 95 c8 3e 93 ad 57 c0
       5.0241566 -10.003162 0.39176697 -3.3699691
0001b0 7d d4 cf bf 09 b0 0c be f7 14 ba 40 b4 e3 e7 c0
       -1.6236721 -0.13739027 5.815059 -7.246546
0001c0 f0 23 0a 40 12 dd d4 40 3a bb 83 bf 2f b3 6a c1
       2.1584435 6.651986 -1.0291512 -14.668746
0001d0 eb 1c e7 c0 72 a2 2f 40 c0 dc 9e 40 b8 17 71 c0
       -7.22228 2.7442899 4.964447 -3.7670727
0001e0 b8 47 28 c1 8e 27 55 c0 d5 42 6e 40 c2 b1 73 40
       -10.517509 -3.3305392 3.722829 3.8077245
0001f0 f4 bc a1 bf 74 8f c5 bf bc 0f 9a c0 91 ba b2 40
       -1.2635789 -1.5434403 -4.8144207 5.585274
000200 8c a5 88 c0 c1 ce c5 40 ff fc 1c 40 8f b2 db c0
       -4.2702084 6.1814885 2.4529417 -6.8655467
000210 64 77 67 c0 e9 26 e0 40 ee a1 9b bf 45 55 98 40
       -3.616662 7.00475 -1.2158792 4.760409
000220 9c 84 d2 3e 15 68 40 3f 46 4c 26 41 69 ee 9b c0
       0.41116798 0.75158817 10.393621 -4.872853
000230 cc 71 d7 bf 5b 34 44 c0 aa 8d 20 40 7d e4 fe bf
       -1.6831603 -3.0656955 2.5086465 -1.9913479
000240 98 62 9a 40 35 57 b5 40 45 a1 b9 3e d4 06 9d c0
       4.8245354 5.6668954 0.3625585 -4.9070835
000250 30 7b 56 c0 fc 7a d6 3f 50 f3 25 3f 30 86 fd c0
       -3.3512688 1.6756282 0.6482439 -7.9226303
000260 c3 20 7a c0 bf 44 5e be 91 b2 ea c0 46 db fc bf
       -3.9082496 -0.21705912 -7.3342977 -1.9754417
000270 99 26 8b 40 76 4c b1 3f 34 40 8a c0 29 48 a1 c0
       4.3484616 1.3851459 -4.3203373 -5.0400586
000280 f6 39 02 40 a1 24 c0 c0 c3 10 f9 40 b8 6e 89 40
       2.0347877 -6.0044713 7.783296 4.2947655
000290 dd 0e 37 41 c2 3c 78 c1 9d 81 43 41 fd 28 8c c0
       11.441129 -15.514833 12.219144 -4.3800035
0002a0 55 af 90 40 33 29 8e 3d 38 24 aa bf 64 5b 57 41
       4.521403 0.06941452 -1.3292303 13.459812
0002b0 3a 00 26 40 e7 fc db 40 55 29 f7 40 f2 6c 5c 41
       2.5937638 6.874622 7.7237954 13.776598
0002c0 b1 2e 69 40 61 a6 20 c1 e8 1e 54 c0 b6 2f a2 c0
       3.6434748 -10.04062 -3.3143864 -5.068324
0002d0 6e 56 42 c1 cf b8 d5 c0 14 ea 32 41 3a 68 99 3f
       -12.146101 -6.6788096 11.182148 1.1984932
0002e0 98 b5 c8 bf b0 48 99 40 c7 f0 48 40 10 84 36 40
       -1.5680418 4.790123 3.139696 2.8518105
0002f0 9f 9d bb 40 18 0d 24 bf a0 73 ca c0 ad a0 1d c1
       5.862991 -0.6408248 -6.3266144 -9.8517275
000300 7c 18 7b bf 09 b7 6c 40 e1 05 2a 41 77 f3 03 c0
       -0.98084235 3.6986716 10.626435 -2.061735
000310 3a ec e1 40 98 25 ca 40 0b 71 1b c1 85 b2 97 3e
       7.0600863 6.317089 -9.715098 0.29628387
000320 48 a7 f4 40 95 4e 77 c0 4a 76 c5 40 8b 61 85 c0
       7.64542 -3.8641713 6.1706896 -4.168157
000330 e0 0f 85 41 6a 07 07 41 d0 f7 61 c1 6b 6a 67 c1
       16.632751 8.43931 -14.123001 -14.463481
000340 c7 86 84 40 6a 49 2b 40 f0 ec 55 40 93 f2 1d c1
       4.1414523 2.6763558 3.3425865 -9.871722
000350 b1 d5 b9 c0 f0 18 ce 40 90 01 50 41 e8 9c 1a 41
       -5.8073354 6.440544 13.000381 9.663307
000360 44 37 f5 40 83 eb d3 40 74 22 0d 41 90 c2 54 c0
       7.6629963 6.622499 8.820911 -3.3243752
000370 d0 70 31 c0 b9 30 2b c0 7e 71 47 41 73 d7 34 c1
       -2.7725105 -2.6748488 12.465208 -11.3026
000380 0c 10 31 c0 66 2d 3c be 8f b8 78 be f5 ee 21 c1
       -2.7666044 -0.18376693 -0.24289154 -10.120839
000390 db 84 ab 3f 1f 01 54 41 49 d6 1f 40 17 64 bb c0
       1.3399919 13.250274 2.497454 -5.855968
0003a0 04 79 c5 c0 6e e4 a0 40 46 e7 1c c1 02 7f 0a c1
       -6.1710224 5.0278845 -9.806463 -8.656008
0003b0 b8 47 5e be 9c 3f ce c0 92 e5 bd c0 8a c9 d2 40
       -0.21707046 -6.445265 -5.9342737 6.587102
0003c0 cb 4c b6 bf 5e 51 f3 c0 49 37 b6 40 74 7f c2 40
       -1.4242185 -7.6036825 5.6942487 6.0780582
0003d0 dc 45 3e 41 8d 13 b0 40 55 54 68 3f 19 8a 63 40
       11.8920555 5.5023866 0.9075368 3.5553038
0003e0 de d3 02 41 0d 8c ad 40 ac 6a cc 40 b9 a2 35 bf
       8.176725 5.423346 6.3880215 -0.7095142
0003f0 a5 3c 4b 40 d3 e9 b3 40 12 ce 12 41 62 33 eb c0
       3.1755764 5.622293 9.17531 -7.3500223

fc2.bias f4 [64]
000000 ec 2b 83 c1 a1 2e b4 c1 f1 dc 0c c1 eb c6 dd c1
       -16.396446 -22.522768 -8.803941 -27.722128
000010 cc ec ee 41 0d 1d f9 41 c7 2c 23 c2 65 4a f9 c1
       29.865623 31.139185 -40.793728 -31.161325
000020 b3 b1 3a c0 33 42 b4 3f 82 64 fc c1 b2 e8 54 40
       -2.917096 1.4082702 -31.549076 3.3267026
000030 37 98 0e c0 9a 34 1e 42 e1 72 59 c2 bc 8a 7e 41
       -2.2280405 39.55137 -54.362186 15.908871
000040 ec 49 88 42 25 d9 5c 42 da fc 2e c1 b7 89 af c0
       68.14438 55.212055 -10.936731 -5.485561
000050 ff 10 dd 41 3c d4 ff 41 66 19 94 41 fb 37 de 40
       27.633299 31.97863 18.512402 6.9443336
000060 b4 76 e2 40 e8 a6 2c 42 33 c2 06 c2 e8 8f 02 c2
       7.07699 43.162994 -33.689648 -32.640533
000070 25 28 6e c2 53 f9 1a 41 c3 cf 8c 42 13 bf b2 40
       -59.539204 9.68587 70.405785 5.5858245
000080 49 55 c1 41 94 e9 36 40 ce f9 37 42 2a bf 10 c1
       24.166643 2.8580065 45.99395 -9.046671
000090 fa a7 87 c1 37 13 37 c2 a6 77 a7 c1 cc 37 e1 bf
       -16.95702 -45.768764 -20.933422 -1.7595153
0000a0 f7 bd c6 41 da b6 e5 3f 1e 83 a4 c1 b5 cb ef 41
       24.842756 1.7946427 -20.564022 29.974466
0000b0 f3 98 3f c1 a8 a9 ab 40 5b af 27 42 a9 7e 98 41
       -11.974841 5.36446 41.921246 19.061846
0000c0 c8 78 69 c1 7c 1a e5 c1 78 aa a7 c1 f9 d2 07 c0
       -14.591988 -28.637932 -20.958237 -2.1222517
0000d0 ad 86 12 42 26 20 82 c0 77 4c 85 42 e0 4b eb c1
       36.63152 -4.0664244 66.649345 -29.412048
0000e0 81 87 a5 42 27 85 93 c0 fc 9c 07 41 7e a4 d1 c1
       82.764656 -4.610004 8.475826 -26.205318
0000f0 7d cf 39 41 6e 69 d7 41 f4 87 88 c1 cb 4c 92 c1
       11.613156 26.92648 -17.066383 -18.287497

fc3.weight f4 [32, 64]
000000 57 70 b4 c0 2c 72 4d 41 f2 53 84 41 32 ba 52 c1
       -5.6387134 12.840374 16.540989 -13.170458
000010 cf 2d 9a c0 c3 a2 e2 c0 6b 6d cd 41 15 c9 16 41
       -4.818092 -7.0823684 25.678427 9.424092
000020 39 79 aa 41 44 aa b5 3e 2f dd 8d 41 0c 64 52 41
       21.30919 0.35481465 17.733 13.1494255
000030 83 de dd 40 db 05 e5 c1 b6 92 af 40 5d 96 85 41
       6.933412 -28.62786 5.486659 16.69842
000040 a1 57 a3 c1 85 ca 51 c0 e9 71 e5 3f b9 63 3c c1
       -20.417788 -3.2779858 1.7925388 -11.774346
000050 79 22 46 3f c3 18 6e 41 94 f2 75 bf c3 a0 50 c1
       0.7739635 14.881045 -0.9607327 -13.039248
000060 27 ad 8d 41 e7 e3 72 41 57 15 a1 c0 a1 e2 cd 41
       17.709547 15.18064 -5.033855 25.735659
000070 41 17 c5 41 64 1d ad 41 79 c2 bc c1 9c db da c1
       24.636354 21.63935 -23.594957 -27.357231
000080 9f 2c 8e c0 fc fb 1c c1 30 7d 7c c1 b6 27 0f 41
       -4.442947 -9.81152 -15.780563 8.947195
000090 15 60 7e 41 98 68 18 41 e3 15 0e 42 34 6f 57 41
       15.898458 9.525536 35.521374 13.464649
0000a0 df 34 ef c0 84 07 5d c1 ff e3 13 c2 91 84 da 41
       -7.475204 -13.814335 -36.972652 27.31473
0000b0 6d 0d 55 c1 c2 7b 7c 40 49 2c 54 40 97 02 6d c1
       -13.315778 3.9450536 3.315203 -14.813132
0000c0 1f b6 5c 41 0f 93 f8 41 86 7f 2e c1 28 87 ee 41
       13.794463 31.071806 -10.906134 29.815994
0000d0 9d 46 a3 c0 25 ba 34 c0 1e 22 fd c1 2b 40 bc 41
       -5.10237 -2.8238614 -31.641659 23.531332
0000e0 35 97 36 c1 d7 b2 0a 41 19 08 81 40 5b 5a 5d 41
       -11.411916 8.668662 4.0322385 13.834559
0000f0 b0 21 52 c1 bf 16 19 c1 73 95 68 41 c0 ac 9e 41
       -13.1332245 -9.568053 14.536487 19.83435
000100 56 f7 c6 40 cd 03 68 c1 e4 16 07 c1 83 9d 30 41
       6.2176924 -14.500928 -8.443089 11.038455
000110 98 58 10 c1 40 5c bb c0 a1 99 03 c1 63 01 87 c1
       -9.021629 -5.855011 -8.225007 -16.875677
000120 f4 c7 a2 40 43 a6 48 c1 49 b3 18 c1 f5 42 a2 c0
       5.0869083 -12.540591 -9.543771 -5.0706735
000130 bd 45 be 41 ea f6 a6 41 42 17 7e 41 c3 34 d3 c0
       23.784052 20.870564 15.880678 -6.6001906
000140 f0 a2 2a 40 cd b2 f0 40 46 ce e9 c0 30 34 b3 40
       2.666195 7.5218263 -7.30643 5.6001205
000150 df d6 ff 41 03 8b 3d 41 e4 8a 47 c1 aa d3 56 41
       31.979918 11.846438 -12.471409 13.426676
000160 f9 31 5c c0 85 9b 17 40 12 5d 22 41 71 5b 1b c2
       -3.44055 2.3688672 10.147722 -38.8393
000170 ec 35 21 c1 11 ce 93 c1 53 c6 83 41 86 ef 54 c1
       -10.0756645 -18.475618 16.471838 -13.308477
000180 47 5a d2 41 b9 09 70 40 88 ec 17 41 70 fd 62 c1
       26.29408 3.7505934 9.495247 -14.186874
000190 33 94 aa c1 a1 7f a3 40 49 03 38 c0 fc 7c 7d bf
       -21.322363 5.1093297 -2.8752005 -0.99018836
0001a0 aa 22 e5 c0 3a c2 de 3f df 25 40 40 0b 3d a8 c0
       -7.1604815 1.7403023 3.0023115 -5.2574515
0001b0 b8 ef d5 41 08 03 0a 41 33 b1 1c c0 ae 05 95 40
       26.74205 8.62574 -2.4483154 4.6569433
0001c0 6a 2f d6 be 75 7c 30 c1 18 4b dc 40 49 a6 aa 40
       -0.4183305 -11.030385 6.8841667 5.3327985
0001d0 05 f0 af 41 fb e1 5c c1 d4 98 94 41 5c a1 e2 c1
       21.992197 -13.805171 18.574623 -28.328789
0001e0 8a 26 06 41 c1 78 ef c1 e1 2f 78 40 90 69 27 c1
       8.384409 -29.933962 3.8779223 -10.463272
0001f0 c9 b4 d7 40 fc ac e2 bd 9e b1 2b c0 9f da 24 c1
       6.7408185 -0.110681504 -2.682716 -10.303374
000200 71 09 59 c1 96 28 3f bd 38 59 4c 40 c6 ac 0a c1
       -13.564805 -0.046669565 3.1929455 -8.667181
000210 c9 18 8f 41 e8 28 78 41 08 51 c0 c0 58 65 85 40
       17.887102 15.509987 -6.0098915 4.168621
000220 ce 3e 9d 40 25 1f 63 41 48 2f 10 41 d1 84 3b 40
       4.9139166 14.195104 9.011543 2.9299815
000230 95 be 0a 41 d4 20 90 c0 6a 53 92 c1 20 1a 49 c0
       8.671529 -4.5040073 -18.29073 -3.1422195
000240 9a f2 92 c1 e5 43 7f 41 d2 6d 0d 41 2b 86 88 c1
       -18.368458 15.954076 8.839312 -17.065512
000250 82 36 6d c1 6a 26 15 c0 99 9a 9b 41 a8 6e de c0
       -14.825808 -2.3304696 19.450487 -6.951008
000260 11 23 91 40 80 a6 22 c0 7b 08 3d c1 8a b0 2e 41
       4.5355306 -2.5414124 -11.81457 10.9181
000270 4b 80 bf 40 94 76 d2 40 eb ba 8d 41 11 e9 09 41
       5.984411 6.576975 17.716269 8.619401
000280 5f 64 8a c1 e3 51 de c0 e4 e4 f4 c1 8a d3 dc 40
       -17.29901 -6.947496 -30.611763 6.9008226
000290 cc dd e7 40 3e f3 79 3f cc 85 8a c1 37 b9 c5 40
       7.245825 0.97636783 -17.31533 6.178859
0002a0 30 20 47 c1 24 bf 54 c0 bc f6 b8 41 d1 20 d1 c0
       -12.445358 -3.3241663 23.120476 -6.535256
0002b0 45 20 d5 c0 f8 fa 8d c1 21 7a d4 40 4d 79 67 41
       -6.660189 -17.747543 6.6399083 14.467114
0002c0 5f 92 86 41 49 0b 1d 3f 5f 38 b7 c0 04 31 3d c1
       16.82147 0.61345345 -5.725631 -11.824467
0002d0 ed 8b cc c1 e2 c8 ac 41 c1 24 91 c1 63 43 00 41
       -25.568323 21.598087 -18.142946 8.016452
0002e0 47 30 00 c2 a2 67 13 41 da bd 4e 41 eb b5 1c c1
       -32.047146 9.212801 12.9213505 -9.794414
0002f0 51 db 05 c1 61 cc 93 c1 45 86 52 c1 ef d6 39 3f
       -8.366044 -18.474794 -13.157781 0.7259359
000300 e6 ba 41 41 99 ba 25 c1 6d 5d 7f c1 61 32 0e 41
       12.1081295 -10.358056 -15.960309 8.8873
000310 d6 92 82 c1 7e 01 af c1 b8 d1 82 c0 da 4f e8 c0
       -16.321697 -21.875729 -4.0881004 -7.2597475
000320 e4 9a 02 c1 48 2e 84 c1 8b c2 06 c1 4d 15 32 c1
       -8.162815 -16.522598 -8.422496 -11.1302
000330 69 82 a1 c0 b9 79 d4 40 5c 6e 80 40 20 8a 1f c1
       -5.047169 6.6398587 4.0134716 -9.971222
000340 4f 28 70 41 53 95 22 c1 5f 98 2c c1 10 50 2f 41
       15.009841 -10.161456 -10.7872 10.9570465
000350 f4 24 36 41 c2 0a bd 40 31 dd 4d c1 6b 90 fc 3e
       11.384022 5.907563 -12.866502 0.49328932
000360 e0 46 ac c0 3d 55 3a 41 4f d4 2d 41 63 20 36 c1
       -5.3836517 11.64581 10.864333 -11.382907
000370 db 1a 20 c1 33 b1 b2 c0 86 29 ea c0 ce dc 66 c1
       -10.0065565 -5.584131 -7.317569 -14.428907
000380 19 b4 d4 40 c3 61 62 41 8d 21 ae 41 b5 ae b3 c0
       6.6469846 14.148868 21.766382 -5.6150765
000390 38 8a 1b c1 c7 90 13 c1 72 d1 14 41 bc 0d 38 c1
       -9.721245 -9.222846 9.301134 -11.503353
0003a0 0c 54 a5 40 f4 af e3 40 11 f1 5a c1 19 b6 df 3d
       5.1665096 7.1152287 -13.683854 0.10923404
0003b0 61 c8 17 41 02 d4 3a 41 4e 68 80 bf 57 84 b0 bf
       9.486421 11.67676 -1.0031831 -1.3790387
0003c0 d8 34 71 c1 11 f6 53 bf ff f8 9c 40 8b 8b 4d 41
       -15.075401 -0.8279734 4.905395 12.846568
0003d0 87 db 56 41 44 4a a7 c1 e1 08 92 40 19 43 09 c0
       13.428596 -20.911263 4.563584 -2.1447203
0003e0 e9 06 80 41 95 04 02 c1 0e aa 19 c1 2d db 35 c0
       16.003374 -8.126119 -9.604017 -2.8415024
0003f0 b6 21 3d 41 b7 ce 5d 41 73 d6 42 40 85 f0 d0 c0
       11.82073 13.8629675 3.044339 -6.5293603

fc3.bias f4 [32]
000000 8a 93 5c c1 4c 84 9d c2 ad 77 c2 c2 d5 ea 74 42
       -13.78602 -78.75839 -97.23374 61.22933
000010 75 d8 2a 43 62 f9 5f 42 aa 37 05 c3 07 8a 20 c0
       170.84554 55.993538 -133.21744 -2.5084245
000020 5e 09 ab c2 08 cd b3 c2 a0 f2 a9 c2 5a a2 aa 41
       -85.518295 -89.90045 -84.97388 21.329273
000030 34 2c 15 c3 ad 05 f4 41 87 63 a0 41 95 b1 8f c2
       -149.17267 30.502771 20.048597 -71.84684
000040 8b bf b7 42 aa 22 cb c2 37 a2 03 42 24 8c b4 42
       91.87411 -101.5677 32.908413 90.27371
000050 b1 3b 07 c2 33 0d e1 c2 03 60 0b 42 a8 31 5c c2
       -33.808292 -112.52578 34.84376 -55.048492
000060 f8 22 2a c3 73 dc 33 40 b0 e2 47 c2 12 f6 79 c2
       -170.1366 2.8103302 -49.971375 -62.490303
000070 59 a5 67 42 6b f3 cd c0 11 2e 8c 42 f1 4e a3 c2
       57.911472 -6.435964 70.08997 -81.65418

output.weight f4 [1, 32]
000000 05 66 49 bf b5 0d c6 be 77 e6 c3 3e 94 2b 2f 3e
       -0.78671294 -0.38682333 0.38261768 0.17106467
000010 9e ae 87 3e 7a 75 ef 3c 90 94 85 be 38 6c 16 be
       0.2650041 0.029230822 -0.26089907 -0.1468972
000020 b9 2a c7 3c 3e fc 92 3d 8e 41 15 3e 78 fe 15 3d
       0.024312364 0.07177018 0.14575788 0.036619633
000030 60 5e 91 be 54 c6 45 3f ca 20 ca 3f cf d5 2e 3e
       -0.28392315 0.7725575 1.5791256 0.17073749
000040 72 26 3d be 26 11 c2 bf b2 a7 ca be 92 95 67 be
       -0.18471697 -1.5161483 -0.39581066 -0.2261565
000050 57 36 d8 be 1c 5c 4e 3f 5d 1c 55 3e 59 41 55 3e
       -0.42228958 0.806093 0.20811601 0.2082571
000060 54 2f f2 3e b6 64 7b 3e 74 b0 47 3f 3d 65 08 be
       0.47301733 0.24550137 0.7800362 -0.1331987
000070 d1 d2 44 3f f9 6c 37 3f 41 d9 f7 3d 05 7b 17 bf
       0.7688418 0.71650654 0.12101985 -0.5917209
