data/trained_models/vbf/models/model_pytorch_test_3.pt (torch, 56591 bytes, 7 tensors)

fc1.weight f4 [128, 24]
000000 2a 08 18 42 a5 10 75 41 2a f5 c3 41 b0 4c d5 c1
       38.007973 15.316564 24.494709 -26.662445
000010 94 07 a9 41 4a a4 9d 41 ec 4a d7 c1 62 39 8f c1
       21.1287 19.70522 -26.911583 -17.903019
000020 7d 53 f4 41 56 a2 0c c1 24 c8 50 41 04 8d 7a c1
       30.540766 -8.789633 13.048862 -15.659428
000030 f2 ce 00 42 c1 c1 f3 40 bc 9c 12 42 00 23 d1 41
       32.202095 7.6174016 36.65306 26.14209
000040 74 c6 3e 42 90 58 43 42 ca 77 c6 c0 cd 2a d0 3f
       47.6938 48.836487 -6.2021227 1.6263062
000050 13 21 2e 41 58 e3 e2 40 28 89 2e 41 81 20 4f 41
       10.883075 7.090252 10.908485 12.945436
000060 fd c5 59 41 0f ec 63 41 f2 cd e1 41 9b 32 8f c0
       13.610837 14.2451315 28.22556 -4.4749274
000070 c3 4e 53 40 68 c9 2b 3f 82 30 37 c1 48 8f 79 3e
       3.3016822 0.67104197 -11.449343 0.24371064
000080 a5 dc e4 40 74 65 96 41 42 ac e1 c0 2e 19 3d 41
       7.151934 18.799538 -7.0522776 11.818647
000090 a4 d9 9f c1 4a 24 e4 c1 b4 63 db c1 3a d9 42 41
       -19.98127 -28.51772 -27.423683 12.178034
0000a0 8d d0 f8 41 81 c6 42 42 72 72 4d 42 01 94 11 42
       31.101831 48.69385 51.361763 36.394535
0000b0 4f 7f 24 42 63 2d 15 42 63 3f 51 bf ad 21 b6 40
       41.124325 37.294323 -0.81737345 5.691611
0000c0 ef 5c e3 bf de 52 86 41 5f 3d b1 41 25 ab 22 c1
       -1.7762736 16.790462 22.154966 -10.166783
0000d0 80 ff 08 c1 dc 02 03 c1 1f 97 1b 41 ed b0 06 c1
       -8.562378 -8.188198 9.724395 -8.418195
0000e0 5a 03 44 c1 2f 2d b8 40 85 07 1f c1 d5 92 07 41
       -12.250818 5.7555156 -9.939336 8.473348
0000f0 11 bf 45 40 ea 28 72 bf 51 34 7e c0 97 42 af 41
       3.0897868 -0.9459368 -3.9719431 21.907515
000100 73 ac 99 41 9d 3f 96 41 31 1c f6 40 0f 29 6f c0
       19.209204 18.781061 7.6909413 -3.736881
000110 12 31 35 c2 91 40 a0 c1 63 41 e2 c1 81 d0 d8 c1
       -45.29792 -20.031527 -28.281927 -27.101809
000120 4d 6e e0 c2 95 23 4f c1 7d ab a5 c1 f1 7c 84 41
       -112.21543 -12.946187 -20.708735 16.561007
000130 2a 28 a9 40 30 60 92 41 b3 b1 17 41 57 94 6a c1
       5.286153 18.296967 9.480884 -14.661216
000140 95 35 f1 c1 d1 92 53 c1 77 d7 4e c2 95 78 1c c2
       -30.151163 -13.223344 -51.710415 -39.117756
000150 b7 d6 b0 c1 6f d3 df 41 98 30 2f c0 7a 29 b2 c1
       -22.104841 27.97824 -2.737341 -22.270252
000160 28 0b 8d c0 80 1b a6 41 d3 93 63 41 79 69 57 41
       -4.407612 20.763428 14.22359 13.46325
000170 cc 61 90 41 4a 45 dc c1 0c 32 69 c0 cc 37 f5 c1
       18.047752 -27.533833 -3.6436796 -30.652245
000180 29 26 65 c2 e0 e1 f9 41 a9 44 1f 41 47 82 1a 42
       -57.287266 31.23529 9.954263 38.627224
000190 fc 78 52 41 3e 3e 9a 41 31 23 5c c1 38 9d ed c1
       13.154537 19.280392 -13.758592 -29.701767
0001a0 67 dd 36 42 75 60 b4 c1 8e 1d 05 40 0f c1 36 c1
       45.716213 -22.547098 2.0799289 -11.422133
0001b0 94 07 11 42 86 d8 31 41 03 ee 79 c0 b4 c1 1f 42
       36.2574 11.115362 -3.905152 39.939163
0001c0 ee 05 1a 42 63 38 3a 42 05 06 10 40 a3 c2 80 c1
       38.50579 46.555065 2.2503674 -16.095037
0001d0 c2 96 03 c1 82 27 b1 c1 7d 2d b3 bf 4a 96 d1 41
       -8.224306 -22.14429 -1.3998257 26.198383
0001e0 4c 60 32 c2 42 46 a8 41 b3 a2 c9 41 52 83 14 c1
       -44.59404 21.034306 25.204443 -9.282061
0001f0 0c 05 08 c1 7d 3b 56 c0 8f a8 1d 41 a0 70 66 41
       -8.501232 -3.3473809 9.853652 14.402496
000200 12 94 95 41 b2 a2 8a 41 0e 60 23 41 da 1a fa 41
       18.6973 17.329441 10.210951 31.263111
000210 de dc ae c0 e8 f2 df c1 f8 59 90 c0 2d 1e ac c1
       -5.4644613 -27.993607 -4.5109825 -21.514734
000220 24 f4 06 42 28 fd 53 42 c6 6c 29 42 98 d7 66 3e
       33.73842 52.997223 42.356224 0.2254318
000230 cd 9e 98 c1 27 74 99 3f 92 d5 01 c1 59 ac ee c0
       -19.07754 1.1988572 -8.114641 -7.4585385
000240 ee 33 90 42 95 d0 b9 41 44 6f 30 42 ea 8c e1 41
       72.101425 23.226847 44.108658 28.193806
000250 4d ec 9b 41 39 c9 3c 41 3b 84 3e c2 0c b2 d0 41
       19.490381 11.799127 -47.62913 26.086937
000260 0e 07 ce 41 b4 2e 14 42 1a 1d 26 42 d3 71 45 42
       25.753445 37.04561 41.52842 49.361156
000270 f4 ba a1 c0 ca 52 ff c0 61 1d e2 c1 05 cd 29 c2
       -5.0540714 -7.978856 -28.264345 -42.450214
000280 f6 6e 45 c0 b3 ad 10 c1 18 37 ec c1 8b 96 1e 42
       -3.0848975 -9.042407 -29.526901 39.647015
000290 ad 1f 03 c1 9d 17 89 41 2f 6c 3e c1 20 9c 56 c1
       -8.195233 17.13653 -11.901412 -13.413116
0002a0 ca 3c 96 c2 08 1d 36 c2 40 00 32 c2 91 dc 57 c1
       -75.11873 -45.52835 -44.500244 -13.491349
0002b0 c7 7e 1d c2 45 d1 fe c1 39 bb 84 c2 91 3a 49 bf
       -39.373806 -31.852182 -66.36567 -0.7860499
0002c0 9d 21 a2 c1 1d 0a 84 c1 38 ce 02 c2 d1 5f 38 c2
       -20.266413 -16.504938 -32.701385 -46.09357
0002d0 01 c4 a6 c1 ef 20 9d c1 55 d8 16 c2 52 ee 3c c1
       -20.845705 -19.64108 -37.71126 -11.808184
0002e0 e0 10 96 42 93 81 8b 42 2c 1e b9 42 9e 26 10 c2
       75.03296 69.753075 92.55893 -36.037712
0002f0 73 7c 31 c0 7f be ec 40 e8 9b 3d c2 50 94 33 c2
       -2.7732208 7.398254 -47.402252 -44.894836
000300 ac e5 08 43 30 34 35 42 24 31 61 42 c2 5e 1a 42
       136.89716 45.300964 56.29799 38.592537
000310 05 c7 6e 42 7b ce 38 42 ff 22 f2 c0 c3 da 9f c1
       59.694355 46.20164 -7.566772 -19.981817
000320 9c 8b 5b c0 54 16 60 c2 8c 3c 80 42 58 d8 88 41
       -3.430396 -56.021805 64.118256 17.105637
000330 43 9a 0e c1 f5 8b 1b 41 05 0c b1 41 e9 cf be 41
       -8.912662 9.721669 22.130869 23.851519
000340 e5 23 c7 c0 5c 07 d0 c1 d8 c9 67 c2 ab 71 2d 42
       -6.2231317 -26.003593 -57.947113 43.361004
000350 65 36 80 c1 fe 6d 48 c2 67 ef a9 c1 90 d9 99 c1
       -16.02656 -50.107414 -21.241896 -19.231232
000360 fa 18 6a 42 37 7c a2 c1 01 15 32 c1 da c5 bc c0
       58.52439 -20.310652 -11.130128 -5.899152
000370 c7 0e 3c 40 3b 05 c2 c0 ca fc fb 40 ff 5e 35 c1
       2.938402 -6.0631385 7.874608 -11.335692
000380 0d c6 18 c1 29 f3 d4 41 18 18 98 41 6f 70 2a 42
       -9.548352 26.61873 19.011765 42.6098
000390 75 0f 5c c2 08 a9 05 c2 37 36 1c 40 b9 da 1f 42
       -55.015095 -33.41507 2.440809 39.963596
0003a0 19 b5 49 c2 d2 dd ce c1 db f6 02 42 e1 27 6e 42
       -50.426853 -25.85831 32.74107 59.538944
0003b0 31 a0 b4 40 38 d1 a6 41 b1 1a e3 c1 f4 6a 10 c2
       5.6445546 20.852158 -28.388033 -36.104446
0003c0 c9 3c f1 c2 39 e5 78 c2 fc 71 8b c2 b3 e7 89 41
       -120.61872 -62.22385 -69.722626 17.238134
0003d0 29 02 f5 c1 20 01 98 c1 68 aa 2b 42 32 24 e4 c0
       -30.626055 -19.00055 42.916412 -7.1294184
0003e0 dd 58 15 c2 7e 60 81 41 73 f9 19 c1 ec 60 71 c2
       -37.33678 16.172115 -9.623401 -60.34465
0003f0 9b 64 1c 41 15 17 8f c1 4f a7 3b 42 3c 1f 4e 42
       9.774562 -17.88627 46.913387 51.530502

fc1.bias f4 [128]
000000 73 17 e8 41 2d 3a 5c c2 13 4f 77 42 27 37 eb 42
       29.01145 -55.056812 61.82722 117.60772
000010 7b 00 6d 42 bb b5 aa c2 79 b4 a1 c2 6e 9e 07 42
       59.25047 -85.35494 -80.852486 33.904716
000020 f0 34 1e c0 c6 1f e4 c1 2b 52 92 42 3e d6 61 41
       -2.471981 -28.515514 73.160484 14.114805
000030 1e d6 33 c2 35 37 f5 c2 92 f9 6b c2 49 a0 b5 42
       -44.9591 -122.60783 -58.99372 90.81306
000040 63 6c d8 c2 9b e3 c7 c2 17 b3 17 41 36 db 48 42
       -108.21169 -99.94454 9.481223 50.214073
000050 80 10 31 c2 f9 fa 9c c1 de 14 23 42 f4 32 20 42
       -44.266113 -19.622545 40.77038 40.04976
000060 b7 24 7a 42 c7 2e 39 c1 6b 02 58 42 7e 4f b9 c1
       62.535854 -11.57392 54.00236 -23.163815
000070 25 74 68 c2 0e fe 80 42 72 43 1f c2 cf f1 05 41
       -58.113422 64.4962 -39.815865 8.371535
000080 0a 0d 5b 40 33 06 88 41 a8 33 6f c2 6b 5f f9 41
       3.4226708 17.003027 -59.800446 31.17159
000090 29 5c 45 3f 46 4c 6f 42 e7 15 ca c2 a6 7b e5 c0
       0.7709375 59.824486 -101.04278 -7.171344
0000a0 62 79 f0 c2 16 9d 1f 42 7b f3 a7 c2 89 44 fa c0
       -120.237076 39.903404 -83.97555 -7.820866
0000b0 b4 f9 de c2 fc 33 7e 42 90 1c 17 42 63 32 e3 41
       -111.4877 63.550766 37.777893 28.399603
0000c0 0d eb 4b 40 9d 66 e2 41 21 d6 cf c1 e9 6a f3 42
       3.1862214 28.300104 -25.979555 121.70881
0000d0 18 72 70 42 fc 12 c1 c1 f1 49 c3 c1 97 ff 12 42
       60.11142 -24.13427 -24.411104 36.7496
0000e0 aa c9 43 c2 29 cf 51 41 16 5d 89 c2 f8 c2 28 c2
       -48.946938 13.113076 -68.68181 -42.1904
0000f0 3e 54 a4 c2 90 66 0a 42 e9 a0 81 42 fa f2 d8 42
       -82.164536 34.60016 64.81428 108.47456
000100 01 d2 fb 41 a7 57 42 c2 db f6 e5 c2 ae 76 da 41
       31.477541 -48.585598 -114.98214 27.30795
000110 ab 97 37 42 cd 8a 41 42 50 87 11 43 6d de d0 c1
       45.898113 48.385548 145.52856 -26.108606
000120 56 9c fd c1 78 d6 7f c1 97 c0 8b 42 87 85 b6 c1
       -31.701336 -15.989861 69.87615 -22.815199
000130 34 05 92 c0 2c 00 2a 42 f8 f3 59 42 d1 e3 88 c1
       -4.563135 42.500168 54.48825 -17.111238
000140 cc 53 a0 c1 ca f7 37 c1 00 4b 65 c2 28 32 97 42
       -20.040916 -11.497995 -57.323242 75.59796
000150 07 48 e9 40 24 18 8f c0 ff cf 4b c2 50 02 b6 c2
       7.2900424 -4.471697 -50.95312 -91.00452
000160 01 65 08 c3 ea 30 af 41 b9 f6 cb c2 90 6b 50 42
       -136.39455 21.898884 -101.98188 52.10504
000170 d7 e4 81 41 36 25 39 42 31 d5 43 c2 c2 ac 69 41
       16.236738 46.28634 -48.958195 14.604677
000180 2b f2 0f c2 cb d6 94 42 68 d4 8d c2 2e d6 5d c2
       -35.986492 74.41952 -70.914856 -55.45916
000190 6c 11 9d c1 a3 90 6f c2 4c 20 f4 c1 3c a1 ab 42
       -19.633507 -59.891247 -30.51577 85.81491
0001a0 ca 8c 9b 41 de 51 19 42 ab 04 99 41 8e 05 93 c0
       19.443745 38.32995 19.12728 -4.594428
0001b0 f0 76 9e c1 c2 fc f2 c1 55 f7 3c 42 22 3a 00 c2
       -19.808075 -30.373417 47.241535 -32.05677
0001c0 37 fd 93 42 9b 92 ac 41 84 41 0c c2 ed b7 be c2
       73.99456 21.571585 -35.06398 -95.35923
0001d0 0f e2 31 40 50 05 2a 42 26 f7 b1 42 39 7b 40 bf
       2.7794225 42.505188 88.98271 -0.7518802
0001e0 67 92 83 c2 3a 72 42 40 49 88 18 43 77 46 fd c1
       -65.78594 3.0382218 152.53236 -31.659407
0001f0 31 c9 63 c2 69 62 58 c2 a0 d9 d9 c1 9a 31 ed 42
       -56.946476 -54.096104 -27.231262 118.59688

fc2.weight f4 [64, 128]
000000 e2 96 af 40 c2 af 8b c1 4b 7c 1b 41 18 56 d5 40
       5.4871683 -17.46082 9.717845 6.6667595
000010 66 1d 9d 40 54 e8 76 c1 99 ba 26 c0 da 00 b9 c0
       4.9098387 -15.431721 -2.605139 -5.781354
000020 bb 1b 52 40 49 3d 97 c1 6e b0 38 41 99 01 02 41
       3.2829425 -18.904924 11.543074 8.12539
000030 9c 59 5a c0 fe bd 88 c1 7e 9a f9 3e 14 e4 41 41
       -3.4117193 -17.09277 0.4875068 12.118183
000040 64 3b e3 c0 38 94 63 c1 5e e2 35 40 56 d8 20 41
       -7.101 -14.223686 2.8419414 10.052816
000050 7b 56 a6 bf ec b8 06 40 45 9f 23 41 a2 7c 70 41
       -1.2995142 2.1050367 10.226384 15.030428
000060 9a 94 cb 40 30 e4 11 c0 eb 19 2e 41 6f 26 00 bf
       6.36189 -2.2795525 10.881328 -0.50058645
000070 8a 49 ae c0 8b a0 3c 40 1e f8 45 c1 07 4c ae 40
       -5.446477 2.9472988 -12.3730755 5.4467807
000080 b6 7c 1f 3f 62 81 29 41 7d 48 45 c1 2f e3 54 bf
       0.6229967 10.594088 -12.330197 -0.83159155
000090 22 80 f5 3d d0 64 18 41 0e c0 a3 c1 ba 92 38 3e
       0.1198733 9.524612 -20.468777 0.18024722
0000a0 70 d3 b4 c1 0d 48 ac 40 df ad 24 c1 d2 17 92 c0
       -22.603241 5.3837953 -10.292449 -4.5654078
0000b0 70 62 89 c1 d5 8e 3a 41 d2 63 39 41 1b cf 0b c1
       -17.173065 11.659871 11.58687 -8.738063
0000c0 b5 be 33 40 37 33 5b 3f d0 82 02 3f c0 79 c3 41
       2.8085148 0.8562502 0.50980854 24.434448
0000d0 8a a9 f4 40 cf a2 00 41 8e 8f dc bf 9c 42 ee 3f
       7.6456957 8.039748 -1.723131 1.8614078
0000e0 67 1f e7 c0 19 83 9c c0 86 d3 92 be f8 ea 31 c0
       -7.2225833 -4.891003 -0.28677005 -2.7799664
0000f0 e5 5e 89 c1 70 2c 35 40 da e1 6a 41 46 3f b1 41
       -17.171335 2.8308372 14.68014 22.155895
000100 c1 0d cf c0 4a f9 4d c0 a0 7c 80 c1 e2 c8 57 41
       -6.470429 -3.2183404 -16.060852 13.486544
000110 3e ee f4 3f 24 a5 ca c0 d6 5b 8a 41 09 82 82 3f
       1.9135206 -6.332659 17.294842 1.0195934
000120 7c a3 01 c1 b0 f4 2a c1 b2 66 2e 41 7e 36 1c c1
       -8.102413 -10.684738 10.900072 -9.763304
000130 12 91 a4 c0 97 88 85 40 b9 bc 03 41 3c 3e 21 41
       -5.142709 4.1729236 8.233575 10.077694
000140 23 61 ce bf e8 b9 78 bf 66 da 24 3f 95 04 1d 41
       -1.6123394 -0.9715867 0.6439575 9.813619
000150 1b 3f 3e 41 ef bb a1 3f a3 15 56 c1 bd f4 55 c1
       11.890407 1.2635478 -13.380282 -13.372251
000160 d7 ea f6 c1 84 c4 eb c0 e8 67 82 c1 dc 25 93 41
       -30.864668 -7.3677387 -16.300735 18.393486
000170 e8 bb 4e 40 33 cc 34 41 93 d3 4a c1 61 e9 61 40
       3.230219 11.299853 -12.676654 3.5298693
000180 ba 13 e7 c0 06 54 14 41 01 4e 24 c1 37 4f 8b 40
       -7.221158 9.270514 -10.269044 4.35342
000190 cb a5 4a c1 03 6e 18 c1 cc 7b bc c0 c7 2e a5 40
       -12.665477 -9.526858 -5.890112 5.16196
0001a0 b1 c6 c6 40 6f eb 57 c1 c5 29 06 3f 65 de 84 c0
       6.2117543 -13.494979 0.52407485 -4.152148
0001b0 65 20 cf bf c0 fe 4b bd ed e3 00 41 bc ef 16 c1
       -1.6181761 -0.049803495 8.055646 -9.433529
0001c0 5a 83 3f 40 47 37 15 41 a3 38 62 bf 4a 32 98 c1
       2.992392 9.325995 -0.8836767 -19.024555
0001d0 81 02 11 c1 96 fc 64 40 8c 7c e8 40 a5 b9 98 c0
       -9.063111 3.5779166 7.2652035 -4.7726617
0001e0 3d 6d 66 c1 78 fe a1 c0 6b 61 94 40 34 df a3 40
       -14.4016695 -5.062313 4.636892 5.1209965
0001f0 26 be dd bf 0e 44 14 c0 32 51 d4 c0 2d 5a e8 40
       -1.7323654 -2.3166537 -6.6349115 7.261008
000200 4d 02 fd c0 aa 59 19 41 d2 c8 b6 40 ac f4 f0 c0
       -7.906531 9.584391 5.712014 -7.529867
000210 c4 da c2 c0 09 2f 17 41 c0 cf 42 c0 4c 3a c7 40
       -6.089205 9.448983 -3.04393 6.2258663
000220 3b 6a 46 bf 5d cf 85 3f b3 63 58 41 2e 33 b6 c0
       -0.77505845 1.0453907 13.524341 -5.6937475
000230 bf c5 29 c0 e3 7a ea bf 15 32 1a 40 e1 89 08 c0
       -2.6526945 -1.8318752 2.4093068 -2.1334155
000240 42 c9 a9 40 35 46 fe 40 67 ff c3 3f f7 b0 03 c1
       5.3058176 7.94607 1.5312318 -8.230704
000250 0d cd 35 c0 fe 8b 70 3e f0 e8 95 3e b4 35 23 c1
       -2.8406403 0.23490903 0.2927928 -10.200611
000260 03 cc 83 c0 80 d3 b5 bf a1 eb 46 c1 af 32 1f c0
       -4.118654 -1.420517 -12.432527 -2.4874685
000270 54 6d 03 41 19 e5 81 3f 49 ee 86 c0 7b 2c 02 c1
       8.214191 1.014804 -4.2165875 -8.1358595
000280 c7 2e 15 40 f0 be f9 c0 ac cf 2c 41 5f cc b0 40
       2.33098 -7.804558 10.800701 5.5249476
000290 27 09 50 41 2d 8c a8 c1 ea 2d 83 41 c5 0e d7 c0
       13.002234 -21.068445 16.397419 -6.720553
0002a0 5d 10 9d 40 27 35 ce 3d 35 43 38 bf 07 ad 92 41
       4.9082475 0.10068732 -0.7197755 18.334486
0002b0 93 35 6f 40 01 f2 24 41 e4 a7 1e 41 a8 41 9e 41
       3.737645 10.309083 9.915989 19.782059
0002c0 70 c1 34 40 c2 87 57 c1 20 be ad c0 b9 1f b4 c0
       2.8243065 -13.470644 -5.4294586 -5.6288724
0002d0 0b f9 86 c1 3f d7 09 c1 b8 a1 86 41 cb 83 24 40
       -16.871603 -8.61505 16.828964 2.570544
0002e0 ce df d4 bf 8d db d7 40 44 0c a9 40 db 16 6c 40
       -1.66308 6.7455506 5.2827473 3.688895
0002f0 8d 6f 13 41 7b f4 ac bf c9 44 10 c1 72 c5 53 c1
       9.214734 -1.351211 -9.016793 -13.235704
000300 f5 f6 4d c0 93 d0 a8 40 61 c8 5a 41 a4 7d 09 c0
       -3.218198 5.2754607 13.673921 -2.1482935
000310 6b 53 1a 41 1e a2 f1 40 f4 ed 5a c1 da 86 0c be
       9.645366 7.5510397 -13.683094 -0.13723317
000320 46 8e 3a 41 6b 5c 97 c0 e7 e8 ee 40 11 d8 a8 c0
       11.659735 -4.7300315 7.4659305 -5.2763753
000330 4a 0c b9 41 9f ce 4e 41 f6 ec 9e c1 ab 88 98 c1
       23.131 12.925445 -19.865704 -19.066732
000340 57 f7 1c 41 c4 f3 a3 40 8e 15 9a 40 87 33 4e c1
       9.810386 5.1235065 4.815131 -12.88758
000350 45 bb 1e c1 de bd 03 41 7d 1a 98 41 cc 2e 4b 41
       -9.92072 8.233854 19.012934 12.698925
000360 48 51 3a 41 01 d7 18 41 10 05 3b 41 40 ff cc c0
       11.644844 9.552491 11.688736 -6.4061584
000370 a6 fa 9c c0 24 be 4e c0 05 a9 a4 41 a0 fd 6a c1
       -4.9055967 -3.2303553 20.58253 -14.68692
000380 b4 6d 65 c0 fd 57 5e c0 3b 54 11 3f ba ae 42 c1
       -3.5848207 -3.4741204 0.5676915 -12.167658
000390 6f 92 07 40 21 55 76 41 8a d0 1a 40 7a b8 09 c1
       2.1183126 15.395783 2.4189782 -8.607538
0003a0 19 fd fe c0 7a 48 c7 40 82 a3 53 c1 0c 1c 47 c1
       -7.9683957 6.227597 -13.227419 -12.444347
0003b0 6b 29 22 3f d7 0b ea c0 ab e4 05 c1 9e a3 ed 40
       0.6334445 -7.3139453 -8.368327 7.426223
0003c0 08 a3 03 c0 db fb 39 c1 09 1d 02 41 ab e2 f0 40
       -2.0568256 -11.623988 8.132089 7.5276694
0003d0 78 b7 84 41 49 c2 e7 40 c3 fd 05 bf 1e 68 b1 40
       16.589584 7.2424664 -0.52340335 5.5439596
0003e0 50 3a 3f 41 6b 51 0a 41 2c a3 08 41 ee 71 b9 3e
       11.951736 8.644877 8.539837 0.36219734
0003f0 13 0e 53 40 e1 4a dc 40 f1 a0 3b 41 b9 1d 0b c1
       3.297734 6.8841405 11.726792 -8.6947565

fc2.bias f4 [64]
000000 91 1d a8 c1 e6 40 f7 c1 6b 64 72 c1 99 4b 13 c2
       -21.014437 -30.906689 -15.149516 -36.823826
000010 0e 79 f3 41 1a d6 08 42 0c e6 5b c2 c3 5f 2f c2
       30.434109 34.209084 -54.974655 -43.843517
000020 fd 7c 90 c0 96 82 b6 3f 7a 22 2a c2 b1 c3 7a 40
       -4.5152574 1.4258602 -42.53367 3.918194
000030 5e e1 4c c0 c7 8f 56 42 53 95 97 c2 56 f8 a3 41
       -3.2012553 53.640408 -75.79165 20.496258
000040 d5 3e b6 42 2e 3f 94 42 05 06 82 c1 d8 5f d5 c0
       91.12272 74.1234 -16.25294 -6.6679497
000050 e4 3b 25 42 01 a6 23 42 f8 81 cf 41 dd a3 1d 41
       41.308487 40.912113 25.938461 9.852506
000060 00 a0 10 41 67 e5 6f 42 0a ae 28 c2 45 53 31 c2
       9.0390625 59.974026 -42.16996 -44.331318
000070 60 64 9d c2 ca 28 69 41 94 36 bc 42 8a b8 97 3f
       -78.696045 14.572458 94.1066 1.1853192
000080 2f ea e1 41 f5 5d 95 40 c5 2a 78 42 3c 50 1e c1
       28.239347 4.6677194 62.041767 -9.894588
000090 d1 74 b7 c1 97 88 63 c2 58 23 e9 c1 b9 cc 41 c0
       -22.93204 -56.88339 -29.142258 -3.0281203
0000a0 36 f6 cc 41 7b ac 3c 40 3a 48 dd c1 bb 98 20 42
       25.62022 2.9480274 -27.660267 40.14915
0000b0 67 56 5d c1 38 8c 1e 41 24 4b 4d 42 8f 07 82 41
       -13.833594 9.909233 51.32338 16.25369
0000c0 b9 73 ab c1 75 28 17 c2 60 dc dc c1 82 77 51 c1
       -21.431505 -37.78951 -27.607605 -13.091677
0000d0 a0 9a 41 42 c0 4c d4 c0 cd f2 aa 42 de 02 2f c2
       48.401 -6.634369 85.47422 -43.7528
0000e0 9f 9d de 42 a2 53 24 c1 46 54 31 41 d6 4c ff c1
       111.30785 -10.270418 11.083075 -31.912518
0000f0 c6 a4 7c 41 32 c3 00 42 5c a8 b8 c1 bb c6 cf c1
       15.790228 32.19062 -23.082207 -25.972036

fc3.weight f4 [32, 64]
000000 77 68 02 c1 c7 6e 90 41 9b 66 af 41 50 84 8f c1
       -8.150504 18.05409 21.9251 -17.939606
000010 63 91 b9 c0 52 45 10 c1 5c 9d 06 42 8d 4d 55 41
       -5.7989974 -9.016924 33.65367 13.331433
000020 9b 4d e5 41 e7 16 90 3f 42 2d be 41 1b 96 91 41
       28.662893 1.1256989 23.772099 18.198294
000030 4b a4 14 41 77 d0 15 c2 87 d2 e3 40 1f bc b6 41
       9.290111 -37.45358 7.119449 22.841856
000040 76 cb e1 c1 3b 7c 7c c0 bd e0 f5 3f b8 e7 82 c1
       -28.224346 -3.9450824 1.920921 -16.363144
000050 90 2c be 3f 5a d2 99 41 70 c4 06 bf 45 f9 8d c1
       1.4857349 19.22771 -0.5264349 -17.746714
000060 dc 53 c3 41 be 09 9e 41 e9 7e e8 c0 5b 91 06 42
       24.415947 19.754757 -7.265492 33.64195
000070 db 46 00 42 a1 6a e8 41 20 b7 f9 c1 34 c5 12 c2
       32.069195 29.052065 -31.214417 -36.69258
000080 0c c8 a7 c0 8f 5c 5b c1 fa af af c1 52 fd 48 41
       -5.24317 -13.710097 -21.960926 12.561846
000090 56 3d a7 41 00 f3 40 41 42 06 3f 42 76 c8 95 41
       20.90495 12.059326 47.75611 18.722881
0000a0 a3 bb 20 c1 40 21 99 c1 e8 de 45 c2 8a bf 13 42
       -10.04581 -19.141235 -49.46768 36.93705
0000b0 f9 25 8e c1 aa 40 92 40 17 14 a2 40 80 d5 9d c1
       -17.768541 4.5703936 5.0649524 -19.729248
0000c0 e2 99 96 41 23 4d 25 42 d7 72 72 c1 af 44 1e 42
       18.825138 41.32533 -15.153037 39.567074
0000d0 cc d5 e9 c0 4a 33 56 c0 fb 66 26 c2 1a d7 f6 41
       -7.3073483 -3.3468804 -41.600567 30.85503
0000e0 a5 d8 7b c1 62 be 32 41 25 4a bb 40 98 57 90 41
       -15.740392 11.17148 5.852801 18.04277
0000f0 ad 20 94 c1 ad d7 53 c1 fe 0c 99 41 6c ea d6 41
       -18.515955 -13.240155 19.131344 26.864464
000100 ca 91 00 41 15 48 9e c1 ea fb 2c c1 4e a6 6e 41
       8.035593 -19.785196 -10.811502 14.915602
000110 94 04 32 c1 4b 7f e5 c0 d9 58 40 c1 aa e6 b9 c1
       -11.126118 -7.1717887 -12.021691 -23.237629
000120 8f a9 f0 40 c5 63 83 c1 94 dc 42 c1 dc ea d8 c0
       7.520698 -16.423716 -12.178852 -6.7786694
000130 bb 14 02 42 b9 5f e1 41 7c ad ac 41 3f 26 0b c1
       32.520245 28.17174 21.58471 -8.696837
000140 b9 85 37 40 8f 3c 29 41 d8 cb 17 c1 00 0c db 40
       2.8675368 10.577285 -9.487267 6.845215
000150 70 92 2c 42 8e 54 71 41 04 bb 7b c1 54 f8 8e 41
       43.143005 15.083143 -15.733158 17.871254
000160 03 8a 89 c0 21 2f 37 40 f9 20 46 41 ce 48 51 c2
       -4.298097 2.8622515 12.38305 -52.3211
000170 e0 a6 5a c1 61 5f d2 c1 0c d0 bb 41 a6 ad 8b c1
       -13.665741 -26.296572 23.476585 -17.45979
000180 de 84 0c 42 7b 58 97 40 62 ac 47 41 9c 8d 97 c1
       35.129753 4.729551 12.479586 -18.944145
000190 03 1f de c1 01 9c a6 40 9c 01 75 c0 76 b4 93 bf
       -27.765142 5.2065434 -3.8282232 -1.1539447
0001a0 45 f1 10 c1 c1 94 0d 40 a1 d0 79 40 bb 16 cb c0
       -9.058904 2.2122042 3.9033587 -6.3465247
0001b0 84 5b 14 42 70 8c 23 41 47 d1 47 c0 83 d9 df 40
       37.08937 10.2217865 -3.1221483 6.9953017
0001c0 3f c9 9a bc 8b 49 74 c1 c3 aa 0c 41 f9 c5 be 40
       -0.01889479 -15.267955 8.79169 5.9616666
0001d0 07 90 eb 41 d5 ad 92 c1 ed eb c1 41 47 10 1b c2
       29.445326 -18.334879 24.240198 -38.765896
0001e0 a7 a0 28 41 ce f9 27 c2 03 a9 c9 40 b5 03 81 c1
       10.539222 -41.99395 6.3018813 -16.12681
0001f0 27 86 0b 41 82 e2 85 bf 47 13 93 c0 7e bb 56 c1
       8.720252 -1.045975 -4.596103 -13.420774
000200 c8 c2 91 c1 bb 57 9d bd 03 a2 88 40 fe 23 3b c1
       -18.220108 -0.07682749 4.269777 -11.696287
000210 f9 40 bf 41 d8 06 a6 41 6d c9 00 c1 d8 b8 b2 40
       23.906725 20.753342 -8.049176 5.585064
000220 dc cd d6 40 d4 32 99 41 5f 6a 40 41 aa b5 85 40
       6.7126293 19.149818 12.0259695 4.178426
000230 98 d5 38 41 01 16 bf c0 b8 fb bf c1 9a 9f 80 c0
       11.552147 -5.971436 -23.99791 -4.0194826
000240 05 9c c3 c1 18 33 aa 41 9d 14 3b 41 6a f2 b6 c1
       -24.451181 21.274948 11.692533 -22.868366
000250 fb cb 9c c1 97 01 47 c0 21 45 cf 41 d4 b7 13 c1
       -19.5996 -3.109472 25.908754 -9.23238
000260 d4 00 c5 40 80 00 6a c0 cc 04 7c c1 5c e8 67 41
       6.156351 -3.6562805 -15.751171 14.494228
000270 51 41 fc 40 a4 5d 0b 41 46 98 bc 41 ea c4 37 41
       7.882973 8.7103615 23.574352 11.485575
000280 bb 13 b8 c1 0e 74 18 c1 98 38 23 c2 9b 00 13 41
       -23.009634 -9.528334 -40.805267 9.187648
000290 51 37 19 41 87 5f a6 3f d3 ac b8 c1 fb 6c 04 41
       9.576005 1.2997903 -23.084387 8.276607
0002a0 d4 2d 83 c1 eb bf 94 c0 9b 28 f5 41 e2 d2 07 c1
       -16.397377 -4.6484275 30.644827 -8.488985
0002b0 07 31 0d c1 74 10 be c1 6e 59 0d 41 e3 9e 99 41
       -8.82447 -23.758034 8.834333 19.202581
0002c0 da af b4 41 91 65 3c 3f da 29 f8 c0 9d 34 7e c1
       22.585865 0.7359248 -7.755109 -15.887845
0002d0 dd 4b 08 c2 52 8c e8 41 0d e3 c0 c1 f9 14 2a 41
       -34.074085 29.068516 -24.110865 10.63012
0002e0 51 97 2b c2 37 4c 44 41 8d 0a 89 41 1e ea 50 c1
       -42.89777 12.268607 17.130152 -13.0571575
0002f0 fe 53 34 c1 f0 5e c5 c1 48 c3 8b c1 dc 5b 80 3f
       -11.270506 -24.671356 -17.470352 1.0028033
000300 4d aa 80 41 24 00 5e c1 76 19 ab c1 97 79 3c 41
       16.083155 -13.875034 -21.387432 11.779685
000310 f8 50 ad c1 29 86 e8 c1 9c f2 b1 c0 b0 83 1b c1
       -21.664536 -29.065508 -5.5608654 -9.71965
000320 c6 90 2e c1 77 13 b0 c1 9b 0e 36 c1 43 77 6d c1
       -10.910345 -22.009504 -11.378566 -14.841617
000330 ba ec d4 c0 08 86 0e 41 a5 2e 9c 40 0e 6d 54 c1
       -6.6538973 8.907722 4.880694 -13.276625
000340 ad 41 a0 41 60 23 57 c1 9f 80 67 c1 8d eb 6a 41
       20.032068 -13.446136 -14.468902 14.6825075
000350 c0 f8 72 41 b6 13 01 41 bc 99 88 c1 2d ba 17 3f
       15.18573 8.067312 -17.075066 0.59268457
000360 b2 26 e8 c0 25 02 7e 41 f8 4c 68 41 f1 40 74 c1
       -7.2547235 15.875524 14.518791 -15.265855
000370 0e ac 56 c1 80 67 ee c0 e7 4e 1a c1 1f ea 99 c1
       -13.417006 -7.4501343 -9.644263 -19.239317
000380 f1 eb 0e 41 c6 c1 98 41 02 77 e9 41 00 e2 f0 c0
       8.932603 19.094616 29.18311 -7.527588
000390 33 c4 4f c1 a8 ac 44 c1 48 20 45 41 10 5e 74 c1
       -12.9854 -12.292152 12.320381 -15.2729645
0003a0 2b b1 d3 40 1c f3 18 41 93 5e 91 c1 17 1e bc 3d
       6.615377 9.559353 -18.171179 0.09185427
0003b0 7b cf 49 41 c5 cc 76 41 47 e1 91 bf 24 4c e3 bf
       12.613154 15.424993 -1.1396874 -1.7757611
0003c0 ce dc a1 c1 69 26 9a bf af 3a d2 40 c3 68 88 41
       -20.232815 -1.2042972 6.5696635 17.051153
0003d0 14 ef 8e 41 63 90 e0 c1 45 bd c6 40 db 6d 39 c0
       17.866737 -28.070501 6.210604 -2.89733
0003e0 07 f1 ac 41 c2 d2 2d c1 83 a0 4a c1 f1 71 7b c0
       21.61769 -10.863955 -12.664187 -3.9288294
0003f0 69 36 7d 41 e6 b6 93 41 e6 2e 81 40 e8 77 0c c1
       15.825784 18.464306 4.036975 -8.779274

fc3.bias f4 [32]
000000 b6 d9 98 c1 01 4c d2 c2 39 10 02 c3 5f 43 a4 42
       -19.106304 -105.148445 -130.06337 82.131584
000010 ef d4 63 43 08 d0 93 42 04 ca 31 c3 ab d8 06 40
       227.83177 73.90631 -177.78912 2.1069744
000020 29 29 e5 c2 ff 20 f6 c2 fc bc e8 c2 40 1f e6 41
       -114.58039 -123.064445 -116.36911 28.765259
000030 fc 2c 47 c3 e1 59 25 42 33 16 df 41 e2 6e b8 c2
       -199.17572 41.337772 27.88584 -92.21657
000040 25 4d f4 42 ee 45 09 c3 4d 97 31 42 15 70 f9 42
       122.15067 -137.27316 44.397755 124.71891
000050 4f 64 37 c2 c2 7a 13 c3 d1 23 3b 42 d7 9a 92 c2
       -45.847958 -147.47952 46.784977 -73.30242
000060 11 2d 63 c3 66 88 15 40 03 c0 89 c2 71 2e a7 c2
       -227.17604 2.33645 -68.87502 -83.590706
000070 2d ca 95 42 b6 32 f8 c0 ea 2e bf 42 8e 8c da c2
       74.894875 -7.7561903 95.59163 -109.27452

output.weight f4 [1, 32]
000000 50 65 1f be fb 59 51 3f e5 95 b9 3e c9 00 9f be
       -0.15565991 0.81777924 0.36247173 -0.31055287
000010 b4 40 a2 3e b6 bd a4 bf d0 fd ae 3e 9b b6 ec bf
       0.3168999 -1.2870395 0.3417802 -1.8493227
000020 df a9 b9 3d a6 e3 51 be da 68 24 bf 57 b2 35 3f
       0.090656035 -0.20496997 -0.6422249 0.7097525
000030 ea d6 3f bd 7f 6d 75 3f a0 04 6f 3f e1 a8 c5 3f
       -0.046835817 0.958702 0.9336643 1.5442163
000040 94 50 d5 3e 52 6a e2 3e 55 56 50 3e ab 8a 27 bf
       0.4166304 0.4422174 0.20345433 -0.65445966
000050 8c e5 16 3d ff 1c e5 3e 90 50 93 be 45 df 37 bd
       0.036840007 0.44748685 -0.28772402 -0.04489066
000060 3f 1e e5 3e 29 0b 09 bc 09 a4 4c bf 85 ef a3 bd
       0.44749638 -0.008364477 -0.799378 -0.08004669
000070 b4 d6 c8 3d 07 07 fb be 57 dd 66 3f 17 99 0d 3f
       0.09806576 -0.490288 0.9018149 0.5531172
