data/trained_models/vbf/models/model_pytorch_test_1.pt (torch, 56591 bytes, 7 tensors)

fc1.weight f4 [128, 24]
14.350173 3.9373658 9.411197 -4.0198445 1.4592278 0.8059093 -5.5820003 -1.234262
6.8522167 0.47002086 0.18129367 2.72541 6.1528273 1.8302886 8.97066 4.518274
2.0555851 0.8375332 -7.605121 4.9719405 6.0313296 -1.3495289 -4.431861 -1.7226291
2.6446617 -3.0108662 6.2022166 -1.7058032 -1.538778 -1.9485103 0.48620498 2.957258
1.2952269 -1.4008709 -0.38181728 3.506364 -8.114984 -1.0456927 -4.3941736 5.4920793
-4.3963823 4.5334554 10.9570675 8.35823 24.981623 17.268805 0.44959745 1.8799324
-1.1417766 6.7092543 9.923786 -6.436126 -8.920705 -8.71815 4.413742 -1.0409837
-5.9440117 0.08734634 -4.5497966 5.284813 2.0504792 1.055619 -2.5848658 10.577698
7.1506 5.8750367 0.8712385 -2.7921436 -20.042757 -11.6387 -13.307292 -11.776063
-44.626534 -4.135327 -4.8827887 7.477667 5.1417937 10.43525 1.2133383 1.450871
-12.288934 -1.1160346 -15.105235 -12.662182 -7.3284698 4.385143 -5.714398 -11.037554
4.359774 12.17625 5.6247935 -1.5331393 10.776431 -12.157831 -6.766404 -12.726665
-23.293055 3.909564 -2.8047945 16.974901 5.1150436 7.6118 -13.919679 -8.5630865
14.168452 8.113503 5.3874874 -3.2664359 7.3755517 -1.3445146 -1.4684826 3.3692813
5.1900325 7.083076 1.281478 -4.2447076 5.4631743 -5.253807 2.191578 8.562788
-20.714785 0.51329213 3.857466 -13.590601 -0.44258913 2.3434474 2.702207 5.808465
1.9033982 1.8826156 2.6588955 0.5066248 -3.3914146 3.805364 -0.43965828 2.6099362
2.7067986 12.9172325 15.762252 0.15343456 4.161289 0.53057694 -0.5051419 -4.6636176
31.827383 7.7723184 14.427767 -1.2233428 5.553202 2.3407888 -15.844134 -0.034468777
6.3448377 11.267258 16.169163 15.923975 -0.04656438 -0.8889398 -0.80167145 -5.4519897
7.618319 5.9651384 -5.8808155 13.367276 -0.3960225 4.327403 -15.893011 -9.430517
-40.561314 -10.002758 -7.987591 -0.14937145 -7.908001 -3.8476493 -12.437259 -2.4871566
7.5754795 -9.452972 -0.86426866 -2.9820461 -2.4895597 5.5405526 3.5886881 -11.125825
-13.327147 -5.08601 1.0944209 -3.8335009 10.037348 -4.4875007 -7.9863653 -9.219144
65.06611 7.755306 8.277576 5.201865 19.650894 12.744941 -1.7856432 1.7659129
-7.7477784 -8.972516 1.7300131 8.656188 -4.155543 -0.80155176 3.2083087 18.478453
6.958232 -1.5515494 -7.677112 2.7349887 -2.2266018 -3.7656784 -1.819155 -4.4007225
20.432295 -6.235361 -3.4484873 -4.0932508 -0.71271646 -3.8341634 0.81648964 -0.11850132
5.546001 0.8790636 3.3013208 7.7120676 -6.9130716 -4.688468 -2.0148377 1.7231247
-2.414767 -0.16322213 7.9053955 17.89965 9.309969 3.00381 -3.078122 -3.0553555
-54.129093 -12.432761 -15.394552 5.620744 0.2051854 5.83674 13.6920395 4.035002
-10.926319 6.1900635 0.9160924 -22.831406 -2.6995273 -2.944691 8.927655 15.087274
00000000: 4f9a 6541 cdfd 7b40 4394 1641 91a2 80c0
00000010: fac7 ba3f 1250 4e3f bf9f b2c0 4cfc 9dbf
00000020: 5c45 db40 93a6 f03e 0ca5 393e 1e6d 2e40
00000030: f6e3 c440 e646 ea3f d387 0f41 b395 9040
00000040: b58e 0340 9368 563f 275d f3c0 231a 9f40
00000050: a700 c140 5dbd acbf ced1 8dc0 1c7f dcbf
00000060: 2342 2940 08b2 40c0 8f78 c640 c257 dabf
00000070: adf6 c4bf c968 f9bf dcef f83e b743 3d40
00000080: ffc9 a53f bd4f b3bf 8e7d c3be 4568 6040
00000090: f9d6 01c1 42d9 85bf 129d 8cc0 1dbf af40
000000a0: 2aaf 8cc0 1112 9140 2650 2f41 4fbb 0541
000000b0: 5dda c741 8326 8a41 a331 e63e a0a1 f03f
000000c0: bc25 92bf 36b2 d640 d4c7 1e41 bff4 cdc0
000000d0: 35bb 0ec1 8b7d 0bc1 603d 8d40 f43e 85bf
000000e0: 5835 bec0 a3e2 b23d ef97 91c0 301d a940
000000f0: 0d3b 0340 861e 873f 716e 25c0 403e 2941
00000100: b7d1 e440 4d00 bc40 7d09 5f3f 7bb2 32c0
00000110: 9157 a0c1 1d38 3ac1 abea 54c1 c16a 3cc1
00000120: 9281 32c2 9954 84c0 ce3f 9cc0 0c49 ef40
00000130: 9389 a440 c9f6 2641 ab4e 9b3f 24b6 b93f
00000140: 799f 44c1 39da 8ebf 0baf 71c1 4c98 4ac1
00000150: d382 eac0 1753 8c40 59dc b6c0 d299 30c1
00000160: 4583 8b40 ecd1 4241 4ffe b340 e93d c4bf
00000170: 436c 2c41 7a86 42c1 6286 d8c0 6ba0 4bc1
00000180: 2d58 bac1 4c36 7a40 c181 33c0 99cc 8741
00000190: 70ae a340 de93 f340 01b7 5ec1 6702 09c1
000001a0: fbb1 6241 e9d0 0141 4c66 ac40 490d 51c0
000001b0: 8504 ec40 0e19 acbf 3df7 bbbf 4ea2 5740
000001c0: bf14 a640 8fa8 e240 7907 a43f a5d4 87c0
000001d0: 53d2 ae40 301f a8c0 d042 0c40 2e01 0941
000001e0: e1b7 a5c1 1d67 033f b9e0 7640 1a73 59c1
000001f0: 0b9b e2be 0bfb 1540 f6f0 2c40 f2de b940
00000200: 8da2 f33f 8cf9 f03f 582b 2a40 2ab2 013f
00000210: f00c 59c0 158b 7340 e41a e1be 3209 2740
00000220: 303c 2d40 fcac 4e41 2f32 7c41 f31d 1d3e
00000230: 4829 8540 e4d3 073f fb50 01bf 5b3c 95c0
00000240: 7b9e fe41 d5b6 f840 22d8 6641 7f96 9cbf
00000250: d5b3 b140 7ccf 1540 9381 7dc1 222f 0dbd
00000260: e908 cb40 b046 3441 725a 8141 9ac8 7e41
00000270: 4bba 3ebd 8f91 63bf 573a 4dbf b376 aec0
00000280: 45c9 f340 6ae2 be40 a42f bcc0 5de0 5541
00000290: 76c3 cabe 167a 8a40 c649 7ec1 66e3 16c1
000002a0: c93e 22c2 4c0b 20c1 589a ffc0 d4f4 18be
000002b0: 580e fdc0 e33f 76c0 03ff 46c1 932d 1fc0
000002c0: 546a f240 603f 17c1 b640 5dbf d8d9 3ec0
000002d0: f254 1fc0 354c b140 11ad 6540 6103 32c1
000002e0: fe3b 55c1 98c0 a2c0 fc15 8c3f 1458 75c0
000002f0: fa98 2041 9b99 8fc0 4e90 ffc0 9d81 13c1
00000300: d921 8242 772b f840 f470 0441 ae75 a640
00000310: 0835 9d41 47eb 4b41 f58f e4bf 6f09 e23f
00000320: cded f7c0 6d8f 0fc1 1271 dd3f bf7f 0a41
00000330: 35fa 84c0 7f32 4dbf ee54 4d40 dfd3 9341
00000340: d6a9 de40 2c99 c6bf e7aa f5c0 0e0a 2f40
00000350: a580 0ec0 e000 71c0 12da e8bf b8d2 8cc0
00000360: 5775 a341 1488 c7c0 04b4 5cc0 e9fb 82c0
00000370: 9674 36bf ef62 75c0 7705 513f d2b0 f2bd
00000380: d778 b140 500a 613f d748 5340 42c9 f640
00000390: e237 ddc0 ee07 96c0 1af3 00c0 5a8f dc3f
000003a0: 8b8b 1ac0 b423 27be 00f9 fc40 7c32 8f41
000003b0: a2f5 1441 6c3e 4040 f3ff 44c0 f28a 43c0
000003c0: 3184 58c2 97ec 46c1 1650 76c1 23dd b340
000003d0: 1f1c 523e 93c6 ba40 9812 5b41 bd1e 8140
000003e0: 34d2 2ec1 0015 c640 0885 6a3f b8a6 b6c1
000003f0: 0ec5 2cc0 d175 3cc0 add7 0e41 7965 7141

fc1.bias f4 [128]
20.223558 -36.077316 31.05827 48.100502 21.152227 -38.946247 -26.611982 -3.189722
-7.824556 -38.618763 43.202217 8.839022 -6.2984924 -54.75649 1.5186282 42.264706
-29.74268 -36.164623 10.828543 16.157543 -16.082539 15.856191 31.383223 22.81599
18.64862 -3.403478 15.169522 1.8058151 -26.752634 24.688131 -24.031523 7.430617
4.3817606 14.144295 -19.013031 15.188325 4.785025 25.93685 -50.983025 4.3556623
-59.898933 20.46813 -20.124146 -20.258364 -46.7012 28.18437 24.948423 -10.454498
5.0918274 13.516323 -15.571925 57.24309 20.62168 -5.691177 10.572251 8.570036
-18.942616 3.3191192 2.6086822 -6.710903 -28.67553 12.870479 40.26642 54.30336
10.361811 -24.205462 -50.457424 29.5582 20.18253 4.6199837 53.329567 -6.512026
-15.888793 -7.072386 28.461811 -37.360474 -4.444531 9.142942 26.216078 16.969584
-12.684131 -8.466127 21.93418 24.42733 21.89592 -0.9611773 -37.966114 -31.819986
-66.75823 -13.687692 -44.086052 29.01807 14.295923 22.655636 -25.567934 14.556663
-5.6971526 18.921638 -33.209396 11.889593 -18.375393 -15.546657 -15.981323 24.149473
4.5853753 -27.57964 6.147535 -2.0191948 -6.5596776 -8.503211 26.077484 -11.345078
26.471603 23.092657 1.2738804 -45.36302 -18.704405 27.92602 31.426107 -9.837066
-38.9462 -7.5298696 47.626072 10.050172 -10.13595 -1.6995083 -10.091399 21.77655
00000000: d9c9 a141 2c4f 10c2 5677 f841 ea66 4042
00000010: c337 a941 f5c8 1bc2 57e5 d4c1 6824 4cc0
00000020: c362 fac0 9d79 1ac2 12cf 2c42 a26c 0d41
00000030: 408d c9c0 a506 5bc2 6962 c23f 0f0f 2942
00000040: 02f1 edc1 93a8 10c2 b641 2d41 a642 8141
00000050: 0aa9 80c1 f5b2 7d41 d710 fb41 2687 b641
00000060: 6030 9541 95d2 59c0 5db6 7241 f324 e73f
00000070: 6505 d6c1 4b81 c541 8f40 c0c1 9dc7 ed40
00000080: 6237 8c40 084f 6241 b01a 98c1 6103 7341
00000090: ed1e 9940 ab7e cf41 9eee 4bc2 9661 8b40
000000a0: 8298 6fc2 bbbe a341 40fe a0c1 2111 a2c1
000000b0: 07ce 3ac2 9779 e141 5f96 c741 a045 27c1
000000c0: 40f0 a240 dc42 5841 9b26 79c1 edf8 6442
000000d0: 33f9 a441 1f1e b6c0 f127 2941 de1e 0941
000000e0: 7a8a 97c1 736c 5440 a6f4 2640 b8bf d6c0
000000f0: 7c67 e5c1 7bed 4d41 d010 2142 a436 5942
00000100: fac9 2541 c9a4 c1c1 67d4 49c2 3277 ec41
00000110: d275 a141 e8d6 9340 7a51 5542 8462 d0c0
00000120: 7f38 7ec1 fc50 e2c0 cab1 e341 2071 15c2
00000130: 9939 8ec0 7e49 1241 87ba d141 b5c1 8741
00000140: 33f2 4ac1 4275 07c1 3379 af41 2c6b c341
00000150: d82a af41 b70f 76bf 4ddd 17c2 558f fec1
00000160: 3784 85c2 c900 5bc1 1e58 30c2 0225 e841
00000170: 1abc 6441 be3e b541 218b ccc1 17e8 6841
00000180: 134f b6c0 845f 9741 6cd6 04c2 c63b 3e41
00000190: ce00 93c1 1bbf 78c1 80b3 7fc1 1f32 c141
000001a0: 65bb 9240 1aa3 dcc1 9bb8 c440 7d3a 01c0
000001b0: e1e8 d1c0 270d 08c1 b09e d041 7185 35c1
000001c0: d8c5 d341 c3bd b841 830e a33f bc73 35c2
000001d0: 9fa2 95c1 7d68 df41 ab68 fb41 9f64 1dc1
000001e0: e9c8 1bc2 b1f4 f0c0 1981 3e42 81cd 2041
000001f0: da2c 22c1 7d89 d9bf 5f76 21c1 6036 ae41

fc2.weight f4 [64, 128]
2.5608995 -8.465678 5.0439115 3.203814 2.1705794 -7.3787 -0.91251314 -2.8992383
1.6885762 -9.053328 5.497416 3.8008723 -1.7395673 -8.214417 -0.028181067 6.3602657
-3.8820074 -6.813859 1.4387418 4.853713 -0.48929834 0.79683876 4.6940455 7.7092056
3.0410266 -0.5556561 5.49704 0.24295743 -2.1591878 1.5531262 -6.014285 2.8585196
0.5859889 5.565907 -6.189628 -0.19084635 0.1898408 4.812328 -10.219353 0.16099332
-10.801776 3.0145082 -5.547605 -2.84192 -8.728879 5.6921034 5.560874 -4.5895224
1.2300225 0.7474055 0.51978415 12.113139 4.0472245 4.100776 -0.94837904 0.6948701
-3.2214658 -1.9677813 -0.5525591 -1.2408841 -8.9526825 1.6565351 7.437543 11.276671
-3.1428006 -2.2016015 -7.893157 6.593364 1.0153198 -3.184891 8.934344 0.7997973
-3.6961606 -5.665804 5.6134567 -4.718843 -2.77354 1.9355893 4.1873784 5.226075
-0.6914754 -0.65097165 -0.028016996 4.9040666 5.873629 0.6176597 -6.5783005 -6.5607944
-14.886993 -3.6888485 -8.155945 9.571563 1.8095268 5.5560765 -6.437289 1.9397402
-3.5049303 4.727247 -5.367986 2.0550892 -6.485852 -4.557427 -2.9469526 2.2534757
3.5456443 -6.719096 0.09297122 -2.377631 -1.2733533 0.042204086 3.7633078 -4.798068
1.5068038 4.4736385 -0.67175376 -9.774554 -4.8291426 1.9025406 3.1900146 -2.55828
-7.122826 -2.095222 2.3747115 2.4449635 -0.6881224 -0.97653043 -3.0768728 3.818613
-2.316527 3.3685472 0.7597869 -4.5063505 -1.0920784 4.417987 -0.882175 2.4939773
-0.25748155 -0.025430048 7.230834 -3.0006452 -1.4175563 -2.9209695 1.5599047 -1.5632472
3.2208989 3.1451392 0.13159199 -2.630034 -2.6375973 1.727208 1.0461794 -5.103521
-2.4526515 -0.7827045 -3.6442454 -1.4172678 1.3940139 1.9541404 -3.3405993 -2.2285743
2.0007482 -3.6805568 4.5126934 2.737111 8.516089 -10.072985 8.072644 -3.2715497
2.2763324 -0.49357814 -1.0213817 8.941029 1.0767765 4.965648 6.2283115 8.340163
2.6130505 -6.560473 -2.1177976 -2.464035 -8.148179 -4.72515 6.3871303 1.4046102
-1.2885953 2.706391 2.0948453 1.1171181 3.396079 0.052375376 -4.1648316 -5.859528
0.16116723 2.3082705 6.7930946 -1.5736927 4.730535 4.9207788 -5.8164663 -0.5266798
4.857311 -3.2334676 4.7314553 -3.4049168 10.8718 5.508612 -9.280204 -9.458838
1.2979627 1.6611754 3.2669566 -6.69241 -3.5986707 4.600196 8.284759 6.4344144
4.1030354 4.042764 5.353013 -1.4619954 -1.4063989 -1.6708184 6.3224907 -7.6884437
-2.2027779 1.5572271 -1.3144261 -6.2248974 0.99537325 8.73029 1.0834237 -3.0730152
-4.6757717 3.492424 -5.7313075 -5.240876 0.260918 -4.2178283 -3.658082 4.502984
0.038498264 -4.282747 3.3884628 3.6842108 7.6659 3.3528714 1.3800049 2.596908
4.8543115 2.6849353 4.740245 -0.8735273 2.3637366 3.826371 5.496764 -5.936869
00000000: c7e5 2340 6b73 07c1 b967 a140 4a0b 4d40
00000010: c6ea 0a40 4f1e ecc0 769a 69bf 1f8d 39c0
00000020: 4423 d83f 6eda 10c1 d5ea af40 7e41 7340
00000030: 24aa debf 416e 03c1 fbdb e6bc 4c87 cb40
00000040: cf72 78c0 220b dac0 b128 b83f 9e51 9b40
00000050: 5085 fabe a0fd 4b3f 9f35 9640 d0b1 f640
00000060: 2ea0 4240 7a3f 0ebf c0e7 af40 d5c9 783e
00000070: 2230 0ac0 d7cc c63f 0675 c0c0 fcf1 3640
00000080: 5e03 163f e91b b240 6f11 c6c0 3a6d 43be
00000090: a065 423e 97fe 9940 7882 23c1 6fdb 243e
000000a0: 13d4 2cc1 b4ed 4040 fb85 b1c0 04e2 35c0
000000b0: 7da9 0bc1 b625 b640 aef2 b140 5edd 92c0
000000c0: 6171 9d3f f855 3f3f 9310 053f 6bcf 4141
000000d0: dd82 8140 8f39 8340 f8c8 72bf 02e3 313f
000000e0: 7f2c 4ec0 42e0 fbbf 8374 0dbf 4ad5 9ebf
000000f0: 303e 0fc1 5809 d43f 5a00 ee40 3f6d 3441
00000100: a523 49c0 0ae7 0cc0 be94 fcc0 d6fc d240
00000110: 00f6 813f 41d5 4bc0 13f3 0e41 84bf 4c3f
00000120: e58d 6cc0 444e b5c0 70a1 b340 c300 97c0
00000130: ae81 31c0 64c1 f73f 01ff 8540 023c a740
00000140: 8804 31bf 14a6 26bf e683 e5bc 1dee 9c40
00000150: c5f4 bb40 f21e 1e3f 7081 d2c0 07f2 d1c0
00000160: 2031 6ec1 1816 6cc0 c07e 02c1 1f25 1941
00000170: 939e e73f 61cb b140 46fe cdc0 6849 f83f
00000180: c750 60c0 9c45 9740 8bc6 abc0 9586 0340
00000190: 198c cfc0 71d6 91c0 df9a 3cc0 f238 1040
000001a0: d6eb 6240 d602 d7c0 b267 be3d 1b2b 18c0
000001b0: 3efd a2bf 31de 2c3d 09da 7040 c689 99c0
000001c0: f2de c03f 0c28 8f40 0ef8 2bbf 9364 1cc1
000001d0: 5688 9ac0 7386 f33f 3329 4c40 dcba 23c0
000001e0: 31ee e3c0 1e18 06c0 46fb 1740 487a 1c40
000001f0: ca28 30bf e6fd 79bf 7ceb 44c0 2864 7440
00000200: fa41 14c0 4796 5740 6581 423f 0634 90c0
00000210: 3ac9 8bbf 2660 8d40 39d6 61bf 539d 1f40
00000220: 9fd4 83be ad52 d0bc fe62 e740 920a 40c0
00000230: 7c72 b5bf 2af1 3ac0 f5aa c73f 7c18 c8bf
00000240: 3523 4e40 f649 4940 0dc0 063e 7a52 28c0
00000250: 65ce 28c0 2715 dd3f 35e9 853f 0b50 a3c0
00000260: 3ef8 1cc0 525f 48bf 513b 69c0 0869 b5bf
00000270: 0c6f b23f 4621 fa3f 61cc 55c0 f6a0 0ec0
00000280: 420c 0040 3e8e 6bc0 fc67 9040 d42c 2f40
00000290: e741 0841 f22a 21c1 8d29 0141 1261 51c0
000002a0: 6eaf 1140 46b6 fcbe a3bc 82bf 740e 0f41
000002b0: d0d3 893f 97e6 9e40 544e c740 4f71 0541
000002c0: 383c 2740 65ef d1c0 ff89 07c0 c0b2 1dc0
000002d0: f15e 02c1 6e34 97c0 5f63 cc40 44ca b33f
000002e0: b1f0 a4bf 8335 2d40 f211 0640 bafd 8e3f
000002f0: 5c59 5940 9087 563d 4d46 85c0 4181 bbc0
00000300: 0609 253e b4ba 1340 0861 d940 c36e c9bf
00000310: 8b60 9740 0577 9d40 7e20 bac0 7dd4 06bf
00000320: 176f 9b40 22f1 4ec0 1568 9740 28ea 59c0
00000330: e5f2 2d41 8d46 b040 b77b 14c1 6757 17c1
00000340: a423 a63f 65a1 d43f d115 5140 3928 d6c0
00000350: 9f50 66c0 ce34 9340 5f8e 0441 b9e6 cd40
00000360: 114c 8340 535e 8140 e24b ab40 aa22 bbbf
00000370: e104 b4bf 61dd d5bf d851 ca40 bb07 f6c0
00000380: 50fa 0cc0 3853 c73f 1d3f a8bf 5c32 c7c0
00000390: c8d0 7e3f 45af 0b41 a1ad 8a3f 48ac 44c0
000003a0: ec9f 95c0 e083 5f40 df66 b7c0 42b5 a7c0
000003b0: 0b97 853e 73f8 86c0 041e 6ac0 7218 9040
000003c0: 5bb0 1d3d 430c 89c0 93dc 5840 1cca 6b40
000003d0: 0e4f f540 7295 5640 00a4 b03f be33 2640
000003e0: 8556 9b40 fbd5 2b40 16b0 9740 7c9f 5fbf
000003f0: 7647 1740 43e3 7440 7ee5 af40 d5fa bdc0

fc2.bias f4 [64]
-11.240553 -14.068408 -5.135246 -18.544256 21.90808 20.51087 -26.813358 -20.903688
-1.6267732 1.1772555 -20.41267 2.582391 -3.821792 26.030237 -33.69492 10.811114
45.509197 38.60085 -5.9151206 -4.0856447 17.532623 21.188427 12.564608 5.93319
5.010676 29.56082 -23.448565 -22.753687 -40.347168 5.6990724 46.96771 5.2595124
17.189411 1.3698238 30.115864 -6.2870893 -12.008914 -31.850948 -13.975351 -0.7332063
19.061275 0.8698577 -13.818257 19.886082 -8.523689 2.658066 27.951008 15.271458
-9.029682 -18.708502 -14.177776 -1.8535762 25.691555 -2.1818807 45.161102 -18.72651
54.775017 -2.7923787 6.5819297 -18.64888 7.471924 19.006483 -10.285842 -12.092515
00000000: 4ed9 33c1 3318 61c1 ef53 a4c0 a35a 94c1
00000010: bf43 af41 4316 a441 c281 d6c1 c13a a7c1
00000020: 1b3a d0bf 4fb0 963f 264d a3c1 e545 2540
00000030: 3d98 74c0 ed3d d041 99c7 06c2 53fa 2c41
00000040: 6b09 3642 4567 1a42 ab48 bdc0 9abd 82c0
00000050: d042 8c41 e681 a941 a208 4941 b1dc bd40
00000060: 7557 a040 8f7c ec41 a996 bbc1 8d07 b6c1
00000070: 8063 21c2 cd5e b640 efde 3b42 ed4d a840
00000080: ea83 8941 6356 af3f 4aed f041 d62f c9c0
00000090: 8324 40c1 bece fec1 0a9b 5fc1 68b3 3bbf
000000a0: 7e7d 9841 ffae 5e3f 9517 5dc1 b216 9f41
000000b0: 0861 08c1 c11d 2a40 aa9b df41 e457 7441
000000c0: 9479 10c1 03ab 95c1 2cd8 62c1 fc41 edbf
000000d0: 4e88 cd41 efa3 0bc0 f8a4 3442 e4cf 95c1
000000e0: 9e19 5b42 55b6 32c0 2b9f d240 e830 95c1
000000f0: 001a ef40 470d 9841 cf92 24c1 f17a 41c1

fc3.weight f4 [32, 64]
-3.7580016 7.8414264 11.446158 -8.713607 -3.2020745 -4.719735 17.193861 5.396733
14.349251 0.2023333 12.006234 8.748886 4.773885 -19.132685 4.063557 11.103938
-13.241757 -2.1247678 1.4237089 -7.719551 0.5533265 9.927372 -0.6663383 -8.556344
11.65503 10.11984 -3.195161 17.19224 16.592062 13.760605 -15.461707 -17.74765
-2.9914382 -6.3974104 -10.192688 5.3981676 10.726508 6.3102636 23.652233 8.850736
-4.5102644 -9.053523 -24.855583 18.154612 -8.643378 2.8327065 1.7337916 -9.560647
9.141817 20.651937 -7.2363896 19.783045 -2.7245853 -1.9515266 -21.10455 15.62206
-7.650269 5.854655 2.6550279 9.105317 -8.561272 -6.3608265 9.585064 13.187948
4.3160005 -9.552526 -5.4948654 7.2960687 -6.6602974 -4.3251925 -3.9544172 -10.830559
2.8842337 -8.656343 -6.7315583 -3.4429712 14.835267 12.822277 10.353557 -4.519169
2.2824326 4.4071155 -4.4990606 4.1514454 21.163578 8.133895 -8.969476 9.320074
-2.5015342 1.6631528 7.490336 -25.380754 -5.8460913 -11.374192 9.814176 -8.865307
17.4771 2.6799512 6.7213507 -9.8388815 -14.159316 4.4344225 -1.8225042 -0.84741354
-5.050621 1.3016291 2.2863815 -3.9273603 16.91039 6.468313 -1.9912359 2.5589721
-0.56985724 -6.5115776 4.845574 4.2205977 14.983165 -9.397123 11.833552 -17.98956
6.119208 -18.576078 1.7727255 -5.5835605 4.6870418 0.4033946 -1.2255558 -6.775996
-8.818709 -0.123311915 2.060082 -5.561 11.976212 10.382574 -4.0913334 2.658349
3.0056567 9.198065 5.9227085 1.6203468 5.8390384 -2.9365935 -12.678128 -2.3993528
-12.1636 10.694133 5.9125805 -11.185544 -9.922519 -1.5670325 13.071009 -4.7252455
2.776672 -1.45532 -7.974062 7.2597585 3.96477 4.374032 11.937943 5.704245
-11.550612 -4.341488 -20.460272 4.5370946 4.860442 0.6010538 -11.651995 4.0190673
-8.548572 -1.8854685 15.719718 -4.696051 -4.444416 -11.850836 4.556678 9.827745
11.004988 0.4055008 -3.5805445 -7.7944136 -17.11971 14.197005 -12.10154 5.320282
-21.141184 6.066686 8.753149 -6.644828 -5.446891 -12.376647 -8.939128 0.40432915
8.048695 -6.7782326 -10.475663 5.9135165 -11.014905 -14.734865 -2.5605354 -4.73814
-5.3579373 -10.950555 -5.443149 -7.336572 -3.5112548 4.3183813 3.1004999 -6.577177
9.918377 -6.925337 -7.075074 7.2457147 7.5151787 3.8087974 -8.707915 0.37433225
-3.430014 7.466694 7.2702456 -7.45283 -6.548212 -3.6431928 -5.0552945 -9.662803
4.3006625 9.237803 14.366418 -3.648316 -6.410782 -6.086115 6.3349037 -7.6518908
3.660339 4.6321583 -9.279674 0.20401174 6.2913566 7.966862 -0.84621614 -1.040701
-9.95811 -0.38850102 3.1606236 8.708816 8.920748 -13.780216 2.8638906 -1.3362287
10.46953 -5.319133 -6.573079 -1.7190989 7.8051496 9.327015 2.123221 -4.208872
00000000: 1983 70c0 f7ec fa40 7723 3741 ef6a 0bc1
00000010: caee 4cc0 1208 97c0 078d 8941 09b2 ac40
00000020: 8896 6541 7630 4f3e 8919 4041 70fb 0b41
00000030: aac3 9840 bd0f 99c1 a908 8240 bba9 3141
00000040: 3dde 53c1 32fc 07c0 183c b63f 9006 f7c0
00000050: cea6 0d3f 84d6 1e41 2695 2abf c9e6 08c1
00000060: 017b 3a41 ddea 2141 857d 4cc0 b589 8941
00000070: 8bbc 8441 702b 5c41 2763 77c1 30fb 8dc1
00000080: b973 3fc0 96b7 ccc0 4015 23c1 cabd ac40
00000090: c79f 2b41 aeed c940 c637 bd41 9d9c 0d41
000000a0: 1654 90c0 3bdb 10c1 3cd8 c6c1 a53c 9141
000000b0: 474b 0ac1 104b 3540 e2ec dd3f 69f8 18c1
000000c0: e244 1241 2b37 a541 8190 e7c0 ad43 9e41
000000d0: 9b5f 2ec0 a0cb f9bf 1ed6 a8c1 f5f3 7941
000000e0: 01cf f4c0 5559 bb40 faeb 2940 61af 1141
000000f0: f8fa 08c1 e48b cbc0 6c5c 1941 d601 5341
00000100: ad1c 8a40 26d7 18c1 f0d5 afc0 6579 e940
00000110: 2821 d5c0 fa67 8ac0 2c15 7dc0 f849 2dc1
00000120: 4997 3840 6280 0ac1 ed68 d7c0 a459 5cc0
00000130: 415d 6d41 0c28 4d41 2ba8 2541 089d 90c0
00000140: 6013 1240 1707 8d40 4ef8 8fc0 a4d8 8440
00000150: 024f a941 6f24 0241 f982 0fc1 061f 1541
00000160: 2319 20c0 31e2 d43f d5b0 ef40 c90b cbc1
00000170: 2e13 bbc0 b1fc 35c1 dd06 1d41 4cd8 0dc1
00000180: 1ad1 8b41 5284 2b40 4e15 d740 0f6c 1dc1
00000190: 8f8c 62c1 cae6 8d40 d147 e9bf 18f0 58bf
000001a0: b09e a1c0 c89b a63f 1354 1240 df59 7bc0
000001b0: 7b48 8741 6cfc ce40 d1e0 febf 33c6 2340
000001c0: 2ae2 11bf d85e d0c0 f10e 9b40 230f 8740
000001d0: 0bbb 6f41 9e5a 16c1 3b56 3d41 9eea 8fc1
000001e0: 8dd0 c340 cf9b 94c1 abe8 e23f 87ac b2c0
000001f0: 3ffc 9540 bd89 ce3e 03df 9cbf f6d4 d8c0
00000200: 6f19 0dc1 f58a fcbd 62d8 0340 b6f3 b1c0
00000210: 909e 3f41 061f 2641 34ec 82c0 6422 2a40
00000220: ae5c 4040 462b 1341 d486 bd40 8667 cf3f
00000230: 67d9 ba40 26f1 3bc0 9dd9 4ac1 ff8e 19c0
00000240: 1b9e 42c1 2b1b 2b41 dc33 bd40 fdf7 32c1
00000250: a3c2 1ec1 8594 c8bf da22 5141 3635 97c0
00000260: feb4 3140 ed47 babf 842b ffc0 f14f e840
00000270: cbbe 7d40 12f8 8b40 d101 3f41 2d89 b640
00000280: 4fcf 38c1 78ed 8ac0 a3ae a3c1 e12f 9140
00000290: be88 9b40 a9de 193f 926e 3ac1 339c 8040
000002a0: f3c6 08c1 0857 f1bf f783 7b41 0d46 96c0
000002b0: a838 8ec0 069d 3dc1 4ed0 9140 723e 1d41
000002c0: 6e14 3041 cd9d cf3e a427 65c0 d66b f9c0
000002d0: 2bf5 88c1 ef26 6341 e89f 41c1 c03f aa40
000002e0: 2521 a9c1 4b22 c240 e60c 0c41 6ea2 d4c0
000002f0: ee4c aec0 bf06 46c1 ab06 0fc1 3b04 cf3e
00000300: 74c7 0041 48e7 d8c0 519c 27c1 873b bd40
00000310: 0d3d 30c1 02c2 6bc1 d0df 23c0 d89e 97c0
00000320: 3974 abc0 7935 2fc1 472e aec0 33c5 eac0
00000330: 66b8 60c0 2e30 8a40 976e 4640 3c78 d2c0
00000340: acb1 1e41 5c9c ddc0 0267 e2c0 e5dc e740
00000350: 587c f040 56c3 7340 9f53 0bc1 7aa8 bf3e
00000360: 5985 5bc0 28ef ee40 daa5 e840 957d eec0
00000370: f48a d1c0 122a 69c0 f9c4 a1c0 d79a 1ac1
00000380: 079f 8940 0bce 1341 d9dc 6541 027e 69c0
00000390: 2025 cdc0 74c1 c2c0 88b7 ca40 4adc f4c0
000003a0: ff42 6a40 a43a 9440 8b79 14c1 74e8 503e
000003b0: cb52 c940 89f0 fe40 9fa1 58bf b135 85bf
000003c0: 6b54 1fc1 9be9 c6be a847 4a40 4f57 0b41
000003d0: 62bb 0e41 c47b 5cc1 fc49 3740 8b09 abbf
000003e0: 3283 2741 5636 aac0 aa56 d2c0 6f0b dcbf
000003f0: c9c3 f940 743b 1541 dae2 0740 14af 86c0

fc3.bias f4 [32]
-8.998711 -52.402325 -64.311485 40.42241 113.85929 37.542683 -88.67455 -4.1483235
-56.45707 -59.85647 -56.095028 13.415952 -99.19447 20.409805 12.818762 -48.80127
61.402954 -67.47961 21.465778 58.60805 -21.903112 -76.66618 22.69913 -36.835285
-113.15035 2.680399 -32.13696 -41.409748 40.434128 -4.6640315 47.0609 -54.09203
00000000: b8fa 0fc1 fb9b 51c2 7b9f 80c2 8cb0 2142
00000010: f5b7 e342 b52b 1642 5f59 b1c2 11bf 84c0
00000020: 0ad4 61c2 066d 6fc2 4f61 60c2 bda7 5641
00000030: 9263 c6c2 4847 a341 a619 4d41 8034 43c2
00000040: a09c 7542 8ff5 86c2 eab9 ab41 a56e 6a42
00000050: 9339 afc1 1655 99c2 d197 b541 5557 13c2
00000060: fb4c e2c2 a88b 2b40 3f8c 00c2 95a3 25c2
00000070: 8cbc 2142 bf3f 95c0 5d3e 3c42 3d5e 58c2

output.weight f4 [1, 32]
-0.06577111 0.2282616 -0.14769658 0.07235236 1.144248 -0.43699512 0.28395292 -0.07788235
-0.26042363 -0.19021696 0.6279369 -0.35691023 -0.7562169 0.40896598 0.48207343 -0.06672247
-0.1803543 -0.25456974 0.57755077 -0.7774554 -0.51500595 1.0915812 -0.16056693 0.23405173
-0.5547655 -0.23316766 -0.18285136 -0.13374056 0.5810496 0.8947204 0.57115704 -0.31963667
00000000: 01b3 86bd 69bd 693e c63d 17be 792d 943d
00000010: b876 923f d3bd dfbe 4762 913e c880 9fbd
00000020: 3f56 85be 3cc8 42be 79c0 203f f0bc b6be
00000030: 6e97 41bf fd63 d13e 54d2 f63e caa5 88bd
00000040: ccae 38be f756 82be 5eda 133f 5107 47bf
00000050: 6ed7 03bf efb8 8b3f a86b 24be 42ab 6f3e
00000060: 1d05 0ebf 81c3 6ebe 633d 3bbe 49f3 08be
00000070: abbf 143f 650c 653f 5937 123f 6ba7 a3be
