data/trained_models/vbf/models/model_pytorch_test_0.pt (torch, 56591 bytes, 7 tensors)

fc1.weight f4 [128, 24]
000000 8d 26 d3 40 6d b9 2b 3e 5e e0 cd 3f 77 de 91 bc
       6.598456 0.16769953 1.6084096 -0.017806275
000010 5f 64 9c be c0 fc 1c bf 8b 2a 50 3e a0 54 1c be
       -0.30545327 -0.61323166 0.20328729 -0.15266657
000020 c5 61 15 40 ef db fe be 9c da a4 bc 83 b4 03 40
       2.3340924 -0.4977717 -0.020123772 2.0578926
000030 e0 1f c0 3f 66 df 6a 3f 09 30 bd 3f 71 79 9d 3f
       1.5009727 0.9174713 1.4780284 1.2302686
000040 3b 6c c4 3d 62 0a 52 bf ae 80 3e c0 1e d4 9d 3f
       0.09590956 -0.8204709 -2.976604 1.2330358
000050 12 71 21 40 c6 b6 7b bf c1 ed d1 bf 2c d5 a6 bf
       2.5225263 -0.98325765 -1.6400682 -1.3033805
000060 1d 2c 09 40 6d 1e f5 bf 4a e2 13 40 d1 77 cc 3e
       2.1433175 -1.914991 2.3106866 0.39935163
000070 eb cc 3f be f8 e2 f0 be df 8f 37 3f 15 5b bd 3f
       -0.18730514 -0.47048163 0.71703905 1.4793421
000080 21 f8 9c 3d 5b 50 5e bf 92 8e 0b bf e8 64 49 40
       0.07664514 -0.8684136 -0.5451442 3.1467838
000090 3a 16 83 c0 cf 34 89 3e 4f 1f a7 bf c1 f5 6e 3f
       -4.096463 0.26798102 -1.305643 0.9334374
0000a0 71 b4 8e c0 d4 dd 39 be eb ff 88 40 28 41 aa 40
       -4.4595265 -0.18151027 4.28124 5.3204536
0000b0 4f e5 32 41 0d e9 d2 40 d3 54 89 bf 5d 37 0a bf
       11.180984 6.5909486 -1.0729011 -0.5399073
0000c0 77 0a fb be d2 89 7b 40 cd db a9 40 2f 45 fe bf
       -0.49031422 3.930287 5.308081 -1.9864863
0000d0 5f 05 91 c0 ea 4a 8f c0 69 74 ed 3f ba 03 5c bf
       -4.5319057 -4.477895 1.855115 -0.85943186
0000e0 71 b4 1c c0 f2 83 d1 3e 74 1d 9d bf 72 50 5a 40
       -2.4485133 0.4092098 -1.2274613 3.41116
0000f0 32 35 90 3f e2 06 8e 3e 51 2d 8f bf f8 bc c0 40
       1.1266234 0.27739626 -1.1185704 6.0230675
000100 16 89 63 40 89 83 25 40 54 2b 31 be f2 07 2b bf
       3.555242 2.5861533 -0.17301685 -0.66809
000110 48 d1 19 c1 d3 32 c8 c0 f2 10 d1 c0 f7 c2 bb c0
       -9.613594 -6.256204 -6.5333185 -5.8675494
000120 9d 97 a0 c1 d9 1e f1 3e 9f d5 6b bc bc 4f 90 40
       -20.07403 0.47093847 -0.014394193 4.509733
000130 0a 00 12 40 c4 29 9a 40 63 de ef bd 30 78 f3 3f
       2.2812524 4.8175983 -0.11712339 1.9021053
000140 ce 0e 4d bf 61 f8 13 be b6 47 d2 bf f5 e9 92 40
       -0.80100715 -0.14450218 -1.6428134 4.591059
000150 a2 29 df bf 61 38 c5 bf 8a 6f 3d be a6 1d 3b bf
       -1.743458 -1.540783 -0.1849958 -0.73092115
000160 1c 58 9e 3f e0 54 5b 40 cd 76 13 c0 89 04 0a bf
       1.2370639 3.4270554 -2.304126 -0.5391317
000170 c2 27 79 40 3a 1c 9d bf 66 7e 95 bf a3 63 25 c0
       3.8930516 -1.2274239 -1.1679199 -2.5842063
000180 1e da 21 c1 a4 b5 2b bf 67 e8 34 c0 5f 65 47 40
       -10.115751 -0.67074037 -2.8266847 3.1155622
000190 dd f3 c3 3f ce a5 20 40 80 5d 6f c0 b6 19 bd bf
       1.5308796 2.51012 -3.7400818 -1.4773471
0001a0 cb 35 89 40 70 e9 94 40 d2 12 aa 3f ee e4 96 be
       4.2878165 4.653496 1.3286994 -0.29471534
0001b0 b2 91 6b bf 2e 55 81 c0 ac 59 26 3f 65 f2 17 3f
       -0.9201919 -4.041648 0.6498058 0.5935424
0001c0 6f 42 9e 3b b7 a2 b0 3e 43 cb d3 3f de 99 4e 3f
       0.004829697 0.34499142 1.6546406 0.8070353
0001d0 c1 aa 72 40 16 e4 29 40 30 97 9d 3f 96 c2 1b 40
       3.791672 2.6545463 1.2311764 2.4337516
0001e0 e7 24 1a c1 49 04 7e bf ae 20 d5 bd 1f c8 bd c0
       -9.634009 -0.9922529 -0.10406624 -5.930679
0001f0 81 6f 9f bd 74 b9 b2 3f e7 4e 75 be 7d 14 b7 3f
       -0.077849396 1.3962846 -0.2395588 1.4303128
000200 22 f2 0a 3f 07 63 d6 be 3c dd e2 3d c3 b5 91 3e
       0.54275715 -0.41872427 0.11077353 0.28458986
000210 16 d7 c6 bf 19 d8 5b 40 06 30 77 be cf e3 c6 3f
       -1.5534389 3.4350646 -0.24139413 1.5538272
000220 a5 da e5 bf 96 63 43 40 10 0c ad 40 8b 94 fd 3e
       -1.795735 3.0529532 5.4077225 0.49527392
000230 09 cd 67 40 46 41 aa 3e 73 b7 88 be 63 56 cc bf
       3.6218894 0.33252925 -0.2670246 -1.5963863
000240 87 44 80 41 60 5a d8 3f d2 ba 65 40 dc 20 49 bf
       16.03346 1.690258 3.5895276 -0.78565764
000250 d8 11 85 3f 4f 21 59 bf 2c 50 92 c0 17 2d 6a bf
       1.039607 -0.8481645 -4.5722866 -0.9147505
000260 2f bf a5 bf c6 1c 31 bf a4 5a 4e 3f 00 d8 5c 40
       -1.294897 -0.6918453 0.80607057 3.4506836
000270 ff 77 60 40 7f 78 92 3f 12 19 f7 be 3d 4f 1f bf
       3.507324 1.1443022 -0.48261315 -0.62230283
000280 a1 0d 32 40 9b 70 b1 3f cc 2b 66 c0 04 09 a1 3f
       2.7820818 1.386249 -3.5964231 1.2580876
000290 3c b1 dc bf d9 b9 25 c0 61 43 03 c1 8c 0a a1 c0
       -1.7241588 -2.5894682 -8.20395 -5.0325375
0002a0 b1 35 92 c1 ef b5 ac c0 24 0e 60 c0 ce 2a 21 bf
       -18.276217 -5.3972087 -3.500863 -0.6295594
0002b0 21 d0 67 c0 34 76 fc bf b8 6c 26 c0 f5 0d d9 3e
       -3.6220782 -1.9723573 -2.6003857 0.4239346
0002c0 2d b4 5a 40 e5 48 88 c0 fc 25 4f bf ef 69 24 c0
       3.417247 -4.2588983 -0.80917335 -2.5689657
0002d0 0f a9 39 bf 9f a2 21 3f 65 e3 0e 40 18 3d a3 c0
       -0.7252359 0.63138765 2.232629 -5.1012077
0002e0 d3 9d dc c0 e3 66 7a c0 3b f6 7f bf 43 36 cb bf
       -6.8942657 -3.9125297 -0.9998509 -1.5875934
0002f0 84 96 64 40 c3 a1 ba bd 7c 5a 91 c0 e3 7e 44 c0
       3.5716867 -0.09112885 -4.5422955 -3.0702446
000300 0a b3 e2 41 2f 86 cd 3f 5b e6 c2 3f 60 d7 a4 3f
       28.337421 1.6056575 1.5226549 1.2878227
000310 97 5d bc 40 5d 88 26 40 cc d5 c5 3d 97 d9 37 bf
       5.8864245 2.602073 0.09659919 -0.7181639
000320 45 aa be c0 07 af d3 bf 0b 0b 6e be 0b 23 0a 40
       -5.958285 -1.6537789 -0.232464 2.1583889
000330 1c 4e 87 bf 83 53 57 bf ff 1b cd bf db ce 0d 41
       -1.0570712 -0.84111804 -1.6024169 8.863002
000340 4f 79 ce 40 14 12 34 40 eb 32 74 be 0e d7 12 c0
       6.452308 2.8136034 -0.23847549 -2.294376
000350 e8 34 8f c0 66 b9 d6 bf 15 7a 0d c0 bc 4c 60 bf
       -4.4752083 -1.6775329 -2.2105763 -0.8761709
000360 8b d5 0c 41 55 00 36 c0 b4 3a dc bf a9 08 91 bf
       8.8021345 -2.8437703 -1.7205415 -1.1330768
000370 84 3c 52 bf ea b7 0e c0 90 ad 53 bf 08 74 00 bf
       -0.8212359 -2.2299752 -0.8268671 -0.5017705
000380 d1 32 32 40 d9 70 a5 bf 83 73 17 3f d4 6f 23 40
       2.7843516 -1.2925063 0.5916063 2.5537004
000390 ae aa 2f c0 11 f2 f3 3e 95 c2 d9 bf b0 73 0f 3f
       -2.7447925 0.4764562 -1.7012507 0.560359
0003a0 8b 9b 97 bf af ac 8a 3f 27 da 8e 40 a3 ac d5 40
       -1.1844343 1.0833949 4.46413 6.677324
0003b0 42 16 ab 40 80 1a 88 3f 91 96 cb bf ff d4 b1 bf
       5.346467 1.0633087 -1.5905324 -1.3893126
0003c0 30 1c c9 c1 2f ba 3a c0 49 02 b5 c0 53 fc 8e bf
       -25.138763 -2.9176137 -5.656529 -1.1170753
0003d0 04 19 af 3f 8c c6 84 40 01 2c b7 40 79 43 00 40
       1.3679509 4.1492367 5.7241216 2.0041182
0003e0 3f 34 e6 bf cf 52 4b bf 94 51 b6 3f 84 c3 57 c0
       -1.7984694 -0.7942323 1.4243646 -3.3713083
0003f0 a6 96 1f c0 0c 53 b1 3e 92 12 2e 40 4e 91 52 40
       -2.4935699 0.34633672 2.7198834 3.2901187

fc1.bias f4 [128]
000000 85 9b 1c 41 c7 c4 8b c1 43 80 6e 41 99 33 89 41
       9.787969 -17.471083 14.906314 17.150194
000010 24 01 12 41 04 6e 9b c1 d7 4a 0d c1 e1 48 6a c0
       9.125278 -19.428719 -8.830771 -3.6606982
000020 48 c1 70 3f f8 f9 95 c1 e4 da 8a 41 05 d1 4b 40
       0.94044924 -18.747055 17.35688 3.1846325
000030 41 93 33 40 66 b7 d4 c1 57 16 a1 be 7d ea a8 41
       2.8058627 -26.58955 -0.31462356 21.114496
000040 21 e8 6e c1 ab 42 86 c1 1c ed f0 40 2d 0e 16 41
       -14.931672 -16.782553 7.528944 9.378461
000050 e4 92 dd c0 12 79 16 41 b6 79 82 41 1c a7 d2 40
       -6.924181 9.404558 16.30943 6.582899
000060 77 62 0d 41 5f 6d da bf 22 f6 27 41 20 ef 0a 40
       8.836539 -1.7064627 10.497591 2.170845
000070 17 47 41 c1 1e b6 23 41 b9 6f 3f c1 a4 f9 9c 40
       -12.079856 10.231962 -11.964776 4.9054737
000080 fd 72 50 be 1d eb ea 40 91 27 04 c1 97 99 ce 40
       -0.20356365 7.3412004 -8.25966 6.4562488
000090 b8 29 15 bf 8f fe 2a 41 94 81 ca c1 0a a2 2f 3f
       -0.5826678 10.687148 -25.31327 0.68606627
0000a0 79 c8 e8 c1 a4 a3 17 41 1c a6 ee c0 98 1e 3c c1
       -29.097887 9.477451 -7.457777 -11.757469
0000b0 8f 6f a1 c1 9b ad 8a 41 ce 91 79 41 0d 80 fa c0
       -20.179472 17.334768 15.598097 -7.828131
0000c0 6c 27 2a 40 05 86 a8 40 d9 a6 74 c0 20 20 df 41
       2.6586561 5.26636 -3.8226836 27.890686
0000d0 a7 89 02 41 c0 45 1f 3f 5b c0 a2 40 b4 c2 d9 3f
       8.158607 0.62215805 5.085981 1.7012544
0000e0 12 41 1b c1 6c 09 a1 bf 2e c6 33 40 6f 99 bf c0
       -9.703386 -1.2581 2.808971 -5.9874797
0000f0 bc 30 62 c1 74 31 be 40 89 6c 97 41 57 92 d3 41
       -14.136898 5.9435368 18.927996 26.446455
000100 a5 48 77 40 9a f3 33 c1 84 cc c5 c1 f0 a9 3a 41
       3.8638089 -11.246973 -24.724861 11.666489
000110 9a d0 24 41 6b a4 ca 3e 67 b9 cf 41 41 3c 58 c0
       10.300928 0.39578566 25.965528 -3.3786776
000120 99 70 f8 c0 6e ae f6 c0 7f 04 4e 41 4e 72 86 c1
       -7.763745 -7.7087927 12.876098 -16.805813
000130 8c b1 49 c0 59 44 4e 40 32 f1 48 41 56 d2 5f 41
       -3.1514616 3.2229216 12.558886 13.988852
000140 d0 e8 fa c0 f7 94 01 c0 4f cf 0b 41 e2 26 2f 41
       -7.8409195 -2.024717 8.738112 10.946993
000150 56 f4 2e 41 46 e1 c7 bf ca 5a 91 c1 15 6b 69 c1
       10.934652 -1.5615623 -18.16933 -14.588643
000160 00 7d 00 c2 72 9f e8 c0 fe 29 bc c1 35 63 78 41
       -32.12207 -7.2694635 -23.520504 15.52422
000170 66 ac e3 40 29 54 4a 41 53 2c 49 c1 e9 e0 18 41
       7.1147947 12.645547 -12.573321 9.55491
000180 d1 4b b2 c0 a6 56 03 41 59 40 80 c1 a8 70 d7 40
       -5.571755 8.208654 -16.03142 6.732502
000190 d3 70 fa c0 73 19 aa c0 96 b2 0c c1 c5 b7 7d 41
       -7.8262725 -5.3156066 -8.7936 15.857366
0001a0 a6 c3 b4 40 72 64 54 c1 64 96 41 40 b5 57 39 3f
       5.648883 -13.274523 3.024804 0.72399455
0001b0 99 b6 7b c0 b8 34 af 3d f0 7c 15 41 21 52 e0 c0
       -3.9330199 0.08554977 9.343002 -7.0100255
0001c0 6c 84 1b 41 db 1d 3a 41 89 9b ee bf de 71 c6 c1
       9.71983 11.632289 -1.8641216 -24.8056
0001d0 3b 4a 3d c1 ca 5d 66 41 5c 71 34 41 6b 45 b2 c0
       -11.830623 14.397898 11.277676 -5.570974
0001e0 95 59 96 c1 3d d6 bb c0 bc 3c 8d 41 6c 01 1f 3f
       -18.793741 -5.869902 17.654655 0.62111545
0001f0 18 87 72 c0 8c 0f bd bf f8 92 8d c0 90 f8 d0 40
       -3.7894955 -1.477037 -4.4241905 6.530342

fc2.weight f4 [64, 128]
000000 47 2a 9f 3f 12 bb 85 c0 2d 82 26 40 1c 8e c4 3f
       1.2434777 -4.1790857 2.6016953 1.5355868
000010 9f 4e 8f 3f 48 4b 63 c0 09 fb ec be 6c 6b b7 bf
       1.1195868 -3.5514698 -0.46285275 -1.4329658
000020 2a e2 5c 3f 56 2b 90 c0 66 16 2e 40 86 05 f2 3f
       0.862826 -4.50529 2.720117 1.8907936
000030 1f 9a 5e bf 05 2b 7d c0 ba a3 b6 bd f3 b0 57 40
       -0.8695392 -3.9557507 -0.08917947 3.3701751
000040 1c b5 fe bf 2f f7 49 c0 b9 4a 29 3f 31 45 1a 40
       -1.989902 -3.155712 0.6612964 2.410473
000050 73 5e 64 be 9e d9 9d 3e 96 17 0c 40 45 2d 76 40
       -0.22301655 0.3083009 2.1889396 3.846513
000060 0b 06 ac 3f 62 0a 9b bd ac 29 2d 40 fe 7b 7e 3e
       1.3439344 -0.0757034 2.7056684 0.24851987
000070 ac 0b 7b bf ad 0f 3d 3f fb 96 40 c0 20 58 b6 3f
       -0.98064685 0.73852044 -3.009215 1.4245644
000080 98 5b a4 3e df 87 31 40 2a ef 3e c0 e0 cb 9e bd
       0.3210113 2.773918 -2.9833474 -0.0775373
000090 81 96 42 3d b7 dc 12 40 30 19 a4 c0 03 e9 d7 3d
       0.047506813 2.2947214 -5.1280746 0.1054249
0000a0 bb 2d a5 c0 f9 28 c6 3f e3 1d 31 c0 2d ee cb bf
       -5.1618323 1.5481254 -2.7674491 -1.593206
0000b0 70 25 8a c0 2d b8 2e 40 ee b9 22 40 de 73 16 c0
       -4.31707 2.7299912 2.5425982 -2.350822
0000c0 3b 71 1b 3f 0e 02 f2 3e 69 64 aa 3e 1c fb c2 40
       0.6071965 0.47267193 0.33279732 6.093153
0000d0 1a 5d 0a 40 9d d9 08 40 e9 f0 ec be 40 a4 81 3e
       2.1619325 2.138282 -0.4627755 0.25320625
0000e0 e3 40 c7 bf 98 56 68 bf bb e6 82 be cb c9 27 bf
       -1.5566677 -0.9075713 -0.25566658 -0.65542287
0000f0 fd 41 8c c0 f2 d2 3f 3f e5 1a 74 40 84 cf b4 40
       -4.383055 0.7493125 3.8141415 5.6503315
000100 7f bd cc bf 26 eb a1 bf 6c 85 7e c0 eb 22 4f 40
       -1.599533 -1.2649887 -3.9768934 3.2365062
000110 f9 88 04 3f 6d 36 d3 bf 03 1a 92 40 eb d6 ed 3e
       0.51771504 -1.6500984 4.5656753 0.46453032
000120 bd 80 e1 bf e2 73 35 c0 39 31 32 40 89 fb 13 c0
       -1.7617413 -2.835198 2.7842543 -2.3122275
000130 5d 8e bb bf 09 fd 72 3f 97 e9 08 40 f9 ab 2a 40
       -1.4652821 0.9491735 2.1392572 2.6667464
000140 f4 2d 77 be 95 0c ec be a7 f0 7e be 78 6d 20 40
       -0.24138623 -0.4610335 -0.24896489 2.5066814
000150 f6 20 32 40 7e c4 87 3e cb 28 4c c0 38 ea 54 c0
       2.7832618 0.265171 -3.1899898 -3.3267956
000160 da a6 e7 c0 a6 41 ec bf 27 66 80 c0 d0 5d 98 40
       -7.2391176 -1.8457534 -4.01247 4.7614517
000170 71 dd 6a 3f 4a 88 29 40 69 ad 4d c0 9c 70 87 3f
       0.9174414 2.6489434 -3.213709 1.0581241
000180 89 d4 c7 bf 34 4b 12 40 d2 18 29 c0 39 fe 60 3f
       -1.5611736 2.28584 -2.64214 0.87887913
000190 5d 24 52 c0 0e c8 0c c0 87 62 b9 bf 06 14 8a 3f
       -3.2834694 -2.1997104 -1.4483193 1.0787361
0001a0 7c f7 fe 3f 6b 80 55 c0 63 ed 97 bd 13 fb b1 bf
       1.9919276 -3.335963 -0.07418325 -1.3904747
0001b0 a0 f1 35 bf 9e 56 16 3e 1e 0f e6 3f d8 4c 16 c0
       -0.71071815 0.1468148 1.7973363 -2.3484402
0001c0 78 5d 40 3f 0a f7 0a 40 ea 8b c1 be 78 d7 99 c0
       0.7514262 2.171328 -0.37802058 -4.8075523
0001d0 4b e4 1a c0 f7 ea 82 3f 2b d4 bb 3f 47 ab a9 bf
       -2.420184 1.0227956 1.4674124 -1.3255395
0001e0 1a b8 6b c0 e7 e6 55 bf b1 3c 89 3f 9f 09 93 3f
       -3.6831117 -0.83555454 1.0721647 1.1487311
0001f0 b7 8e 7f be 15 c5 01 bf ae 34 b1 bf c6 eb fc 3f
       -0.24956785 -0.5069135 -1.3844202 1.9759452
000200 16 58 a5 bf b0 6f ce 3f 9a cb df bc 8e bd 0e c0
       -1.2917507 1.6127834 -0.027318764 -2.2303195
000210 d8 59 60 3d fd 8c 04 40 f5 0a 0c bf d0 2e 4f 3f
       0.05477318 2.0711052 -0.5470422 0.80930805
000220 30 6b 7c bf 7e 97 16 3d 54 d9 56 40 06 22 ad bf
       -0.98601055 0.036765568 3.3570147 -1.3526008
000230 17 10 69 bf e5 c7 d8 bf 8e 0d ac 3e 30 47 87 bf
       -0.91040176 -1.6936003 0.3360409 -1.05686
000240 cf 8a cf 3f e8 b5 8b 3f 76 f1 8c be 22 c2 71 bf
       1.6214236 1.0914888 -0.2752797 -0.9443685
000250 4d 80 c7 bf 99 04 a9 3f e2 64 59 3f 03 fe 36 c0
       -1.5586029 1.3204528 0.8491956 -2.8592536
000260 34 ee 13 bf f4 ea 7f bf 2f 65 96 bf c9 de 0f bf
       -0.57785344 -0.99967885 -1.1749629 -0.5619932
000270 72 31 91 be a6 64 aa 3f 94 59 ec bf 35 74 22 bf
       -0.28358036 1.3311965 -1.8464837 -0.6345857
000280 be 33 a0 3f 80 d0 c5 bf 3e b4 fa 3f 10 96 8c 3f
       1.251579 -1.5454254 1.9586256 1.0983295
000290 ab 4e 85 40 cd 2b 86 c0 c6 c3 74 40 a4 82 bf bf
       4.165853 -4.192847 3.824449 -1.4961743
0002a0 03 c6 4a 3f b2 27 d0 be df cf d1 be 39 24 8e 40
       0.7920839 -0.40655285 -0.40978906 4.4419217
0002b0 a9 a4 cf 3e a4 92 33 40 b4 c3 6a 40 98 ce 68 40
       0.40555313 2.8058252 3.6681948 3.6376095
0002c0 e3 22 ec 3f 0f 81 57 c0 8b 18 22 bf d7 fe 02 bf
       1.8448147 -3.367252 -0.633187 -0.51170105
0002d0 9b 3a 81 c0 e5 7d 0b c0 61 54 30 40 ca 44 6a 3f
       -4.038404 -2.179559 2.75515 0.91511214
0002e0 d1 45 5a bf e6 81 68 3f df e5 a9 3f 6e 92 97 3d
       -0.8526278 0.9082321 1.3273276 0.07400976
0002f0 21 f7 ca 3f 3f 19 98 bd e0 6f f8 bf fc 25 2a c0
       1.5856668 -0.0742669 -1.9409142 -2.6585684
000300 a3 7e 17 3f ba bc 89 3f c6 61 50 40 78 7e 6b bf
       0.5917761 1.076072 3.2559676 -0.9198985
000310 8a 37 0c 40 43 a3 19 40 da c0 27 c0 70 60 87 bf
       2.1908898 2.4005897 -2.6211457 -1.0576305
000320 71 3f 1f 40 6a 30 da bf 4b 02 24 40 11 33 07 c0
       2.4882472 -1.7046025 2.56264 -2.1124918
000330 52 db 9d 40 3f ce 2c 40 ac a0 88 c0 a6 6e 88 c0
       4.9330225 2.7000883 -4.2696133 -4.263507
000340 4e 69 ad bd 76 96 8a 3f d7 cc 08 40 32 68 4a c0
       -0.08467351 1.0827167 2.1375024 -3.1626096
000350 27 81 b4 bf f7 08 29 40 2d a9 52 40 b5 61 36 40
       -1.4101914 2.6411722 3.2915757 2.8497136
000360 67 86 ac 3f cb 09 d1 3f 2d ee 10 40 03 5d 5c be
       1.3478516 1.6331114 2.264537 -0.21519856
000370 b6 4d 18 bf 62 db 3c bf 5b a1 17 40 30 20 74 c0
       -0.5949358 -0.7377225 2.3692234 -3.8144646
000380 72 be ab bf 5a 1a cb 3f fd 25 aa bf 23 9e 18 c0
       -1.3417494 1.5867417 -1.3292843 -2.384652
000390 40 ea 46 3f dc 17 82 40 7c d2 1b 3d c5 62 8d bf
       0.7770119 4.0654125 0.03804253 -1.1045767
0003a0 4b 67 3c c0 86 fc ed 3f fe cd 01 c0 56 5c ef bf
       -2.9438045 1.8592689 -2.0281978 -1.8700054
0003b0 2b ce 06 3f 76 ba e4 bf b8 41 b5 bf 57 ae 1d 40
       0.5265834 -1.7869403 -1.4160681 2.4637659
0003c0 9a ef 13 3f 7d be c3 bf 0d 8a be 3f 01 84 dc 3f
       0.5778748 -1.5292507 1.488588 1.7227784
0003d0 af 0f 55 40 e8 23 bf 3f a3 55 5a 3f 4b ce a0 3f
       3.3290823 1.4932833 0.8528692 1.2562956
0003e0 c7 c3 0a 40 78 fc 16 3f dd ac 17 40 fb ab 49 bf
       2.1681993 0.58978987 2.3699257 -0.78778046
0003f0 16 26 7a 3f 76 2c f6 3f 04 52 fa 3f 69 db 4e c0
       0.97714365 1.9232318 1.9556279 -3.2321417

fc2.bias f4 [64]
000000 eb 9f bd c0 9f 6d d2 c0 e1 76 1c c0 bc 54 15 c1
       -5.925771 -6.5758815 -2.4447558 -9.333187
000010 e2 75 31 41 9b 32 26 41 1c 72 53 c1 a2 78 2d c1
       11.09128 10.387355 -13.215359 -10.841951
000020 60 37 1e bf 62 0a 62 3f 9c 9e 1c c1 dc 07 c8 3f
       -0.61803246 0.8829709 -9.788723 1.5627398
000030 c8 e7 4b c0 2d 3d 4c 41 00 c9 7b c1 a1 af b4 40
       -3.1860218 12.7649355 -15.736572 5.646439
000040 a5 a7 b2 41 9c 5d 96 41 21 74 42 c0 8b 81 19 c0
       22.331858 18.795708 -3.038338 -2.3985317
000050 05 a6 fb 40 bc b4 23 41 52 bb d5 40 c4 b7 45 40
       7.864016 10.231625 6.6791162 3.0893412
000060 0c ae 30 40 c5 fa 5a 41 90 74 31 c1 7b 48 42 c1
       2.760623 13.686223 -11.090958 -12.142695
000070 00 c7 a2 c1 b9 07 0f 40 f5 f5 bb 41 63 b9 61 40
       -20.347168 2.2348464 23.495096 3.52694
000080 3b b6 02 41 14 59 02 3e 06 2b 67 41 d4 2a 47 c0
       8.16949 0.12729293 14.448004 -3.111989
000090 5a bd c1 c0 50 45 83 c1 f3 b1 e0 c0 19 85 38 3d
       -6.054364 -16.408844 -7.0217223 0.045048807
0000a0 e0 72 1e 41 a5 dc 7b 3e 60 f3 df c0 00 7b 1e 41
       9.903046 0.24595888 -6.998459 9.905029
0000b0 ed 9c 82 c0 ce 9a a7 3f d8 7b 4b 41 89 ca 0e 41
       -4.081656 1.3094118 12.717735 8.924447
0000c0 62 f9 78 c0 fa ad 12 c1 80 1b e7 c0 6d 12 c9 bf
       -3.890221 -9.167475 -7.222107 -1.5708748
0000d0 38 48 59 41 7d b4 15 bf 84 0a b6 41 05 be 0f c1
       13.580132 -0.5847853 22.755135 -8.9838915
0000e0 57 8b d5 41 03 23 d8 bf 2c 25 7a 40 e5 64 18 c1
       26.693037 -1.6885685 3.9085188 -9.524632
0000f0 c4 57 56 40 4e a9 18 41 bc 92 a3 c0 a3 06 b2 c0
       3.3491068 9.541334 -5.111662 -5.56331

fc3.weight f4 [32, 64]
000000 4e 1b db bf 20 be 4e 40 90 07 b5 40 29 2e 86 c0
       -1.7117708 3.2303543 5.657173 -4.193135
000010 99 03 da bf 43 60 21 c0 3f 9a 08 41 03 cb 07 40
       -1.7032348 -2.5215003 8.537658 2.1217659
000020 c8 8d e4 40 69 b1 17 bc ec 25 c0 40 1e 4b 88 40
       7.1423073 -0.0092586065 6.004629 4.2591696
000030 be 10 12 40 09 88 17 c1 b2 b7 05 40 a8 6b ad 40
       2.2822719 -9.470712 2.0893369 5.4193916
000040 31 0d c1 c0 64 e3 93 bf c2 ea 57 3f 75 7f 66 c0
       -6.0328603 -1.1553769 0.84342587 -3.6015294
000050 bb 00 6c 3e ba c3 a0 40 4a 2d f0 be fa 1f 85 c0
       0.23047154 5.0238924 -0.46909553 -4.1601534
000060 66 4d b3 40 30 d9 a0 40 18 97 b3 bf 96 3a 08 41
       5.603198 5.026512 -1.4030485 8.514303
000070 c3 77 02 41 e1 c3 c1 40 12 28 ef c0 af 01 09 c1
       8.154239 6.055161 -7.4736414 -8.562911
000080 15 80 cf bf 0d 3e 41 c0 e6 3c 95 c0 9c fa 0e 40
       -1.6210963 -3.0194123 -4.663684 2.234046
000090 2f 65 aa 40 82 b2 49 40 c7 d0 38 41 be b3 85 40
       5.3248515 3.1515203 11.550971 4.178191
0000a0 86 28 fb bf d2 b0 8c c0 37 7b 46 c1 19 94 0e 41
       -1.9621742 -4.3965845 -12.405082 8.911157
0000b0 ff af 80 c0 da 95 d0 3f 1d aa 1e 3f dd a2 93 c0
       -4.021484 1.6295731 0.6197832 -4.613631
0000c0 b5 20 8a 40 19 97 21 41 1d 4c 5c c0 95 7d 1d 41
       4.3164926 10.099389 -3.4421456 9.84316
0000d0 4e 2f 44 bf 70 1b 88 bf e8 ae 29 c1 9c 44 f8 40
       -0.7663468 -1.0633373 -10.605202 7.758375
0000e0 e3 e6 6d c0 22 33 40 40 fe 30 8d 3f 0a 3c 8f 40
       -3.7172172 3.003121 1.1030576 4.476079
0000f0 c9 61 7c c0 86 e2 3e c0 07 08 99 40 8f 10 cc 40
       -3.9434683 -2.982576 4.78223 6.3770213
000100 1e 96 0d 40 20 c5 91 c0 35 e3 0d c0 1f a0 68 40
       2.2122874 -4.555313 -2.2169926 3.634773
000110 65 5d 5d c0 37 6a 11 c0 35 3a 96 be 98 4c 8f c0
       -3.4588253 -2.2721078 -0.29341283 -4.4781
000120 4a 3b 8f 3f 6d cc 8e c0 ec 3a 59 c0 01 d7 dc bf
       1.1189969 -4.4624543 -3.3942213 -1.7253114
000130 29 08 d7 40 d7 be a9 40 cc da a8 40 e1 aa 05 c0
       6.719746 5.304546 5.2767086 -2.0885546
000140 9c bc b5 3f 42 8b cc 3f 96 22 fc bf 55 47 15 40
       1.4198184 1.5979998 -1.9698055 2.3324788
000150 f4 32 1e 41 53 4c 85 40 28 50 95 c0 19 57 9b 40
       9.88744 4.165567 -4.6660347 4.854382
000160 c2 63 ac bf 48 fc 0e 3f 86 0c 89 40 ab 93 3a c1
       -1.3467944 0.558537 4.2827787 -11.661052
000170 7b 9b dc bf bf 1e 9d c0 1f 79 6c 40 62 35 8d c0
       -1.7234949 -4.910003 3.6948926 -4.4127665
000180 41 7b 09 41 0b 1d ae 3f 64 3d 69 40 83 42 9c c0
       8.592591 1.3602613 3.644372 -4.883119
000190 54 d9 d4 c0 f9 4f 23 40 5a eb 7d bf eb 13 f8 be
       -6.6515293 2.5517561 -0.99187243 -0.48452696
0001a0 17 92 2c c0 68 30 44 3f e6 d1 a0 3f cc c7 09 c0
       -2.6964166 0.7663636 1.2564056 -2.1528196
0001b0 0a 38 fe 40 55 b1 6b 40 47 35 c7 bf bf a7 2a 3f
       7.9443407 3.6826985 -1.5563134 0.6666221
0001c0 ba fe 71 be fe 52 09 c0 2a a1 1f 40 9a aa 0f 40
       -0.23632327 -2.1456904 2.4942117 2.2447877
0001d0 b7 7d f0 40 de 21 98 c0 6a 49 a1 40 13 d8 fc c0
       7.515346 -4.754134 5.0402117 -7.9013762
0001e0 a0 2a 5b 40 db 20 ff c0 f8 eb d0 3e ae db da bf
       3.4244766 -7.9727607 0.4080503 -1.7098291
0001f0 23 22 0d 40 72 4a 1f 3f 9e 4a 19 bd bd 59 4c c0
       2.2052085 0.6222297 -0.037424676 -3.1929772
000200 f7 85 84 c0 a9 2f e0 bd 12 6c 87 3f a2 79 21 c0
       -4.141353 -0.109465905 1.0579855 -2.5230489
000210 c6 65 bc 40 16 06 a3 40 79 3f 02 c0 dd 12 9c 3f
       5.8874235 5.094493 -2.035124 1.2193257
000220 1d 15 9c 3f 43 71 87 40 a1 18 3c 40 94 21 d7 3e
       1.2193943 4.232576 2.9390032 0.42017806
000230 fe 5c 36 40 74 6d be bf 4a cc db c0 ce 9d c6 bf
       2.8494258 -1.4877152 -6.8686876 -1.5516908
000240 8d 9d c0 c0 4e 10 a8 40 0b a6 45 40 40 3b ab c0
       -6.0192323 5.2519903 3.0882595 -5.3509827
000250 d2 32 a3 c0 7a 09 5c bf 1a f4 cf 40 7c d4 15 c0
       -5.0999537 -0.8595196 6.4985476 -2.341094
000260 dc 3d 90 3f ac 7d ed be 89 23 7d c0 e6 03 6b 40
       1.1268878 -0.46384943 -3.955294 3.672113
000270 b0 65 03 40 b4 9b 0f 40 87 ea bf 40 d0 0b 37 40
       2.0530815 2.2438784 5.997379 2.860096
000280 df 1e bb c0 86 89 eb bf ed 6b 22 c1 fc 22 0f 40
       -5.8475184 -1.8401344 -10.151349 2.2365103
000290 0b 4b 25 40 50 8b a3 3e 99 a3 b9 c0 75 64 f9 3f
       2.5827053 0.31942225 -5.8012204 1.9483782
0002a0 5f de 8f c0 1e 9e 11 bf c0 2b 02 41 78 16 2d c0
       -4.495895 -0.5688189 8.135681 -2.7044964
0002b0 6d bc 12 c0 e7 ab b8 c0 89 9d 15 40 c5 e8 a1 40
       -2.2927506 -5.770984 2.3377402 5.0596642
0002c0 82 cf a6 40 e7 d8 9b 3e fb 15 c6 bf 05 46 70 c0
       5.2128305 0.3043892 -1.5475458 -3.7542737
0002d0 4a 58 08 c1 f4 21 d9 40 68 71 c4 c0 3a 8c 2d 40
       -8.521555 6.7853947 -6.1388435 2.7116838
0002e0 12 ca 23 c1 4b 1b 3f 40 67 22 8d 40 dc 9a 56 c0
       -10.236834 2.9860408 4.4104495 -3.3532019
0002f0 cb 9d 27 c0 d0 df c3 c0 09 d8 92 c0 59 be 58 3e
       -2.619006 -6.121071 -4.5888715 0.21166362
000300 39 17 7a 40 34 42 4a c0 a0 37 9e c0 0c 95 37 40
       3.9076674 -3.1602907 -4.94429 2.868472
000310 d4 35 b5 c0 0f 45 f1 c0 03 4e 81 bf 6b 05 0c c0
       -5.662821 -7.53968 -1.0101932 -2.1878307
000320 84 b1 21 c0 90 e7 a8 c0 e4 6d 1d c0 3f 35 5d c0
       -2.5264597 -5.278267 -2.4598322 -3.456375
000330 a9 8c fb bf aa 47 fe 3f 35 e0 08 40 a1 1d 48 c0
       -1.9652301 1.986562 2.1386845 -3.1268084
000340 9c d1 98 40 d3 fd 69 c0 b2 31 56 c0 f1 e4 5f 40
       4.775587 -3.6561172 -3.3467832 3.4983485
000350 35 82 67 40 89 a9 d9 3f 69 ce 90 c0 c5 45 4f 3e
       3.6173222 1.7004863 -4.5251966 0.20241459
000360 a9 b1 ba bf 91 a7 52 40 fb 25 6a 40 25 13 60 c0
       -1.4585468 3.2914774 3.6585681 -3.5011685
000370 d5 e6 43 c0 03 e9 d5 bf ac db 31 c0 62 4b 9d c0
       -3.0609639 -1.6711735 -2.7790327 -4.915452
000380 97 d9 f6 3f ef 92 8a 40 57 f3 dc 40 ad 41 d5 bf
       1.9285153 4.330436 6.9047046 -1.6660668
000390 7b 06 45 c0 32 5d 3a c0 16 5d 57 40 15 0b 70 c0
       -3.0785205 -2.9119382 3.3650565 -3.7506764
0003a0 b1 dc 07 40 06 68 08 40 38 1d 9b c0 29 a5 9e 3e
       2.122845 2.131349 -4.8473167 0.30985382
0003b0 5e 08 43 40 9e 8d 87 40 c5 6f 26 bf 88 98 33 bf
       3.0473857 4.2360373 -0.65014297 -0.7015462
0003c0 6f 99 99 c0 cd 2d 67 3d 49 b8 b0 3f d5 c1 91 40
       -4.7999797 0.056440163 1.3806239 4.554911
0003d0 a8 99 8a 40 d4 bc d2 c0 d3 3d 92 3f 0e c8 04 bf
       4.331257 -6.5855503 1.1425117 -0.5186776
0003e0 e4 ca 9d 40 9b aa 1e c0 64 a7 60 c0 3f db 17 bf
       4.931017 -2.479163 -3.5102167 -0.5931892
0003f0 26 1f 71 40 7c d3 98 40 6c bd 9b 3f 0e 4f ee bf
       3.7675261 4.775816 1.2167182 -1.8617876

fc3.bias f4 [32]
000000 06 18 83 c0 5e 0b d1 c1 31 60 fa c1 96 31 9c 41
       -4.0966825 -26.13055 -31.296968 19.524212
000010 28 f7 61 42 d1 af 97 41 b8 77 2f c2 f4 54 60 c0
       56.491364 18.960848 -43.866913 -3.5051851
000020 d9 ad da c1 47 e8 eb c1 a4 d3 e8 c1 92 67 d6 40
       -27.334887 -29.488417 -29.10334 6.700143
000030 cd 97 43 c2 a4 56 25 41 f5 5a da 40 b2 1b c2 c1
       -48.898243 10.3336525 6.823603 -24.263523
000040 e4 db f6 41 6b 36 05 c2 3b 05 22 41 52 5e de 41
       30.857368 -33.303143 10.126277 27.796055
000050 a1 58 20 c1 4e cb 19 c2 82 13 34 41 eb 7f 97 c1
       -10.021638 -38.44854 11.254763 -18.93746
000060 d8 16 5f c2 05 4a 3e 40 b4 7d 7f c1 97 e2 a1 c1
       -55.77231 2.9732678 -15.968189 -20.23564
000070 23 04 a8 41 8f 3e 25 c0 37 42 bf 41 1b a6 d2 c1
       21.00202 -2.5819433 23.907331 -26.331106

output.weight f4 [1, 32]
000000 1b de 2b 3e 69 e7 88 be 11 4c 63 3d c1 34 3d bd
       0.16783945 -0.26739052 0.055492464 -0.04619289
000010 70 a5 5f bf 3d c5 79 3d 14 6d 52 3e fa d8 50 be
       -0.8736181 0.060979117 0.20549423 -0.2039527
000020 64 42 68 3d e5 e2 18 3d be 2f 89 be 7c 8f bf be
       0.05670394 0.03732576 -0.26794237 -0.37414157
000030 b0 af 3c 3f ce 61 d5 3e 31 91 fa 3e 66 6d 96 3e
       0.7370558 0.41676182 0.48938897 0.2938034
000040 10 c0 14 bf 93 07 14 bd dd 37 e7 be 2c 71 0a be
       -0.58105564 -0.036140036 -0.45159808 -0.13519734
000050 f4 6d ca 3e 15 a0 46 3f 7a 89 00 be d7 37 e5 3e
       0.39537013 0.77588016 -0.12552443 0.44769165
000060 6c 12 1b 3f ab 7e ef 3e 76 4a ac bd 34 9c 4b 3e
       0.60574985 0.46776327 -0.0841264 0.19883806
000070 10 81 11 3e 4e 30 2e bc 0f 37 08 3f 04 5d 24 3e
       0.1420939 -0.010631634 0.5320901 0.16051108
